mila.tflite (tflite, 206748 bytes, 9 tensors)

Const_1 f4 [32]
0	0x3c4b9a43	0.012426916
1	0x3c43374b	0.011915038
2	0xbcacdb70	-0.02110073
3	0x3caac913	0.020847833
4	0x3cd9f943	0.026608115
5	0x3c5ce197	0.013481519
6	0xbb9590f2	-0.004564398
7	0x3ca0caa5	0.019627878
8	0x3cc6900c	0.024238609
9	0x3c8be664	0.017077632
10	0xbc8d1746	-0.017223012
11	0x3c511ffe	0.012763975
12	0x3c95d09d	0.018287951
13	0x3b43d339	0.0029880537
14	0x3bba7679	0.0056903926
15	0x3cb60b13	0.022222077
16	0xbc140e5c	-0.009036627
17	0xbcbb93c3	-0.022897607
18	0x3c09aad7	0.008402548
19	0xbcb31277	-0.02185939
20	0x3c79a0ad	0.015236062
21	0x3c279dc8	0.010230489
22	0x3ca47f11	0.020080121
23	0x3c64e0b2	0.013969587
24	0x3bbd8cde	0.005784615
25	0xbc7e7253	-0.015530187
26	0xbc6ee991	-0.014582054
27	0xbc99e95a	-0.018788029
28	0xbc822fa8	-0.015891865
29	0xbcb58b2f	-0.022161094
30	0xbc4f16d7	-0.012639723
31	0x3c626d34	0.013819981

Const_2 f4 [32]
0	0x3f7f5982	0.99745953
1	0x3f7d8178	0.9902568
2	0x3f810d85	1.0082251
3	0x3f818c3c	1.0120921
4	0x3f81ef5a	1.0151169
5	0x3f7e0559	0.9922691
6	0x3f7e9f48	0.99461794
7	0x3f829479	1.020156
8	0x3f7b661d	0.9820269
9	0x3f81232a	1.0088856
10	0x3f817532	1.011389
11	0x3f7cca2f	0.9874601
12	0x3f809baa	1.0047505
13	0x3f7ff6ee	0.9998616
14	0x3f7e7502	0.9939729
15	0x3f805940	1.0027237
16	0x3f7e9661	0.9944821
17	0x3f7e1996	0.9925779
18	0x3f7ede61	0.99558073
19	0x3f6f38f9	0.9344631
20	0x3f7f8283	0.9980852
21	0x3f7a7971	0.97841555
22	0x3f80028e	1.000078
23	0x3f7f3885	0.99695617
24	0x3f7fcbb0	0.9992018
25	0x3f7cb6b9	0.9871631
26	0x3f7e3932	0.99306023
27	0x3f8003c5	1.000115
28	0x3f7f4882	0.99720013
29	0x3f7eeb11	0.9957743
30	0x3f7edadb	0.99552697
31	0x3f811a30	1.0086117

Const_3 f4 [32]
0	0xbc099940	-0.008398354
1	0xbc9e2d45	-0.019308696
2	0x3bf7d5de	0.0075633368
3	0x3d155bc3	0.036464464
4	0x3cb8cd27	0.022558762
5	0xbcb523e9	-0.02211185
6	0x3cf81443	0.030283099
7	0x3caad54f	0.020853667
8	0x3c1e5f20	0.009666234
9	0x3bf9a9e9	0.007619132
10	0x3c0c28c1	0.008554638
11	0x3c995358	0.0187165
12	0x3c70a65c	0.014688101
13	0x3b8b8869	0.0042582047
14	0xbbd26bf6	-0.0064215614
15	0xbc8b5deb	-0.017012557
16	0xbcc701d0	-0.024292856
17	0xbca520ee	-0.020157304
18	0xbcbbb5e6	-0.022913884
19	0x3bfee77b	0.0077790595
20	0x3b2f31d4	0.002673258
21	0x3cd1d881	0.025615932
22	0x3cffa9a5	0.031208823
23	0x3c96ec97	0.018423362
24	0x3bb70cf3	0.0055862605
25	0x3d15ec91	0.03660256
26	0xbb7372a9	-0.00371472
27	0x3983fb06	0.00025173294
28	0xbca3f103	-0.020012384
29	0xbca19983	-0.01972652
30	0xbaa7dbcd	-0.0012806595
31	0x3bca13b6	0.0061669005

Const_5 f4 [32]
0	0x3d346391	0.044040266
1	0x3e1720dd	0.1475863
2	0x3c016f51	0.007900075
3	0x3daf0ba1	0.0854714
4	0xbce720a0	-0.028213799
5	0x3e170697	0.14748608
6	0x3e324819	0.17410316
7	0xbd9236e2	-0.07139374
8	0xbdafd6e7	-0.08585911
9	0x3d6e0572	0.05811066
10	0xbda4636d	-0.080267765
11	0x3ddb989d	0.10722468
12	0x3e3a7069	0.18206944
13	0xbe15b8fa	-0.14621344
14	0x3c2bd00d	0.010486615
15	0x3dd272a9	0.10275776
16	0xbe0fc229	-0.1403891
17	0xbe0997e8	-0.13436854
18	0x3dbb43f4	0.091438204
19	0x3d999e8a	0.07500942
20	0xbd77fbe6	-0.060542963
21	0xbe02986e	-0.1275346
22	0x3dfac32a	0.12244256
23	0x3dc1d8a9	0.09465153
24	0xbd156945	-0.036477346
25	0xbdea9789	-0.11454684
26	0xbdbafe94	-0.09130588
27	0xbd06c4b7	-0.032902446
28	0xbdf45a7a	-0.119313195
29	0xbd58817b	-0.052857857
30	0xbd26ffe6	-0.040771388
31	0x3e3d253d	0.18471237

Const_6 f4 [32]
0	0x3f7e470a	0.99327147
1	0x3f8463bc	1.0342937
2	0x3f7fb5dc	0.9988687
3	0x3f7ed789	0.9954763
4	0x3f84bcca	1.0370114
5	0x3f8004cc	1.0001464
6	0x3faeb18f	1.3647937
7	0x3fb5178b	1.414781
8	0x3f804163	1.0019954
9	0x3f84c304	1.0372014
10	0x3f821d0d	1.0165116
11	0x3f8862c0	1.0655136
12	0x3fb97951	1.4490148
13	0x3fa46805	1.2844244
14	0x3f7f8a6a	0.9982058
15	0x3f83a591	1.0284902
16	0x3f80a1be	1.004936
17	0x3f8835c1	1.0641404
18	0x3f865717	1.0495328
19	0x3f814a59	1.0100814
20	0x3fa3605c	1.2763782
21	0x3fab0f5c	1.3364062
22	0x3f7e0388	0.9922414
23	0x3f9e14cb	1.2350096
24	0x3f816e6f	1.0111827
25	0x3f7ff81f	0.9998798
26	0x3f871c1d	1.0555454
27	0x3fb2bb3d	1.396339
28	0x3f7f0ad8	0.9962592
29	0x3f890a98	1.0706358
30	0x3f8055e8	1.0026217
31	0x3f7dde35	0.99167186

Const_7 f4 [32]
0	0xbc0ab266	-0.008465385
1	0x3c848dfe	0.016180988
2	0xbbc1fb95	-0.0059198835
3	0xbbc0caa5	-0.005883532
4	0x3d0666ef	0.03281301
5	0xbc1b4a88	-0.009478219
6	0x3eae76a1	0.34074882
7	0x3eb9c094	0.36279738
8	0x3b8b87fc	0.004258154
9	0x3d5c2ad8	0.053751796
10	0x3be8e0c7	0.0071068737
11	0x3cacde63	0.021102136
12	0x3ec24fca	0.379515
13	0x3e9d63b8	0.30740142
14	0xbc5d9e97	-0.01352658
15	0x3cb114cb	0.02161636
16	0x3ba4c65d	0.0050285296
17	0x3cda5b94	0.026654996
18	0x3d458104	0.048218742
19	0x3b6a56cc	0.0035757301
20	0x3e98f1e8	0.2987206
21	0x3ea7ac35	0.3274857
22	0xbc063a4b	-0.008192609
23	0x3e90d1f2	0.28285176
24	0x3c426df7	0.011867038
25	0xbabcd0f3	-0.0014405533
26	0x3ce1deae	0.027572002
27	0x3eb4d4b3	0.35318527
28	0xbbbcdf6e	-0.0057639396
29	0x3d390a49	0.045175824
30	0xba824355	-0.0009938279
31	0xbc43cc9e	-0.01195064

MatMul f4 [32, 1536]
0	0xbbdb7b90	-0.0066980794
1	0x3ba88186	0.0051423935
2	0xbc9f555e	-0.019449886
3	0xbccf137f	-0.025277851
4	0x3cb04cf1	0.021521064
5	0x3be54c6d	0.006997636
6	0x3c167844	0.009183947
7	0xbd019386	-0.03163483
8	0xb8b883c6	-8.7983484e-05
9	0xba3473a6	-0.0006883688
10	0x3b2d8463	0.0026476614
11	0xbce46252	-0.027878914
12	0xbb997e96	-0.0046842797
13	0x3cca33a3	0.024682825
14	0xbc15b271	-0.009136782
15	0x3bffc91d	0.007805957
16	0xbb8c4159	-0.004280251
17	0x3c27f329	0.010250845
18	0xbc7f04e2	-0.015565129
19	0xbcd4024f	-0.025880007
20	0x3bc7fd6d	0.0061032088
21	0xba03a9a3	-0.0005022531
22	0xbc98c2df	-0.01864761
23	0x3c5b73bd	0.013394293
24	0x3c54d627	0.012990511
25	0xbcb46383	-0.022020107
26	0xbc4281f2	-0.011871802
27	0x3ca3a2b3	0.019975042
28	0x3c11c3f8	0.00889682
29	0x3c89ea05	0.016835222
30	0x3cc76816	0.024341624
31	0x3bcfabee	0.0063376343
32	0x3ca50872	0.020145629
33	0x3c8695a0	0.016428769
34	0x3c18a664	0.009317014
35	0x3ca3c559	0.019991564
36	0xbbc4db9b	-0.0060076243
37	0x3cc2b907	0.023769869
38	0x3b235333	0.0024921417
39	0xbadb7e00	-0.0016745925
40	0xbc9d9035	-0.019233802
41	0xbc65089a	-0.013979102
42	0xbc95eaad	-0.018300379
43	0xbc30b49c	-0.010785248
44	0xbbcea519	-0.0063063023
45	0xbcd9f491	-0.026605876
46	0x3c503582	0.01270807
47	0xbd103a9f	-0.035212155
48	0xbc79cde1	-0.015246839
49	0x3d337508	0.04381278
50	0x3cd93d12	0.026518378
51	0x3d11f667	0.03563538
52	0x3c48903c	0.012241419
53	0xbbedf2db	-0.0072616166
54	0x3c7940d8	0.015213214
55	0x3c30adbb	0.010783608
56	0x3cb2f8c3	0.021847134
57	0xbcb1648c	-0.02165439
58	0xbb775dd2	-0.003774513
59	0xbc3e9273	-0.011631596
60	0x3ca79d4c	0.020460747
61	0xbcdb369e	-0.026759442
62	0xbc482494	-0.012215752
63	0x3b736d9e	0.0037144194
64	0x3c0a6fd6	0.008449515
65	0x3cb33f2b	0.021880707
66	0x3d26421c	0.04059039
67	0x3c372db4	0.01118033
68	0x3cde69aa	0.027149994
69	0xbc950b85	-0.01819397
70	0xbbc89749	-0.00612155
71	0x3add1366	0.0016866743
72	0x3c56d0a6	0.013111269
73	0x3c8cd181	0.017189743
74	0x3ccb32da	0.024804521
75	0x3bfc070b	0.0076912693
76	0xbc49322e	-0.01228003
77	0x3aa74cd3	0.0012763984
78	0x3ba8e901	0.0051547294
79	0x3cb09e04	0.021559723
80	0xbcd6a957	-0.026203794
81	0x39c5d8c9	0.00037736286
82	0xbb049748	-0.0020231772
83	0x3cea805a	0.028625656
84	0x3c4dec3f	0.0125685325
85	0x3a229cc3	0.0006203169
86	0xbbdc94b0	-0.006731592
87	0xbc1263a3	-0.008934888
88	0xbc46d800	-0.012136459
89	0x3c4fc973	0.012682307
90	0x3bd08557	0.0063635516
91	0xbc3bfdb2	-0.01147406
92	0xbc3ce450	-0.011529043
93	0x3c02b48e	0.007977618
94	0xb9adb1dc	-0.00033129647
95	0xbad6b1a5	-0.0016379846
96	0xbc29a091	-0.010353223
97	0xbb75aad0	-0.0037485845
98	0x3c5a0b69	0.013308384
99	0xbca84812	-0.020542178
100	0x3c50da64	0.012747381
101	0xbc85d0ad	-0.016334856
102	0xbbae1a7d	-0.0053132162
103	0xbc47fbaf	-0.012206002
104	0x3b5da358	0.0033819284
105	0xbc35a9e1	-0.011087866
106	0x3c78c2cb	0.015183161
107	0x3af20e3d	0.0018467378
108	0x3c4b94a7	0.012425578
109	0xbc9029c2	-0.017598037
110	0x3bdd664f	0.006756581
111	0x3c87dd1a	0.016584922
112	0xbca5a068	-0.02021809
113	0x3cd23b6e	0.025663104
114	0xbb9a7e21	-0.004714743
115	0xbb8ad507	-0.0042368206
116	0x3c5f6bd0	0.013636544
117	0x3c8ce4ae	0.017198887
118	0xbaddbff4	-0.0016918168
119	0x3ced4579	0.028963791
120	0x3c60acb1	0.013713048
121	0xbc24958f	-0.010045423
122	0xbc295f1b	-0.010337616
123	0xbc90e543	-0.017687446
124	0x3cce5b4c	0.025190018
125	0xbc1a9454	-0.009434778
126	0x3c29b9c6	0.010359233
127	0xbc89a1ed	-0.016800845
128	0x3b0c27c9	0.0021386018
129	0xbb2fbf93	-0.0026817068
130	0xbd03837d	-0.03210782
131	0x3b6e0bda	0.0036322982
132	0xbca672b8	-0.020318374
133	0xbc2eaea9	-0.010661759
134	0x3be1cefc	0.0068911295
135	0xbc58af1d	-0.013225344
136	0x3c3fec93	0.0117141185
137	0xbbfc13ba	-0.0076927813
138	0x3c720819	0.014772438
139	0x3cd683df	0.026185928
140	0xbcc6c367	-0.024263097
141	0x3c06a783	0.008218649
142	0xb9d9533a	-0.00041451474
143	0xbc0111e6	-0.0078778025
144	0xbc636563	-0.013879153
145	0x3c13d701	0.009023429
146	0x3a10b3af	0.0005519939
147	0xbb1a0e5c	-0.0023507094
148	0x3bac454b	0.005257284
149	0xbbbebac8	-0.005820606
150	0xbbcc0b9c	-0.00622697
151	0x3bb46d0b	0.005506163
152	0xbb4a62bf	-0.0030881611
153	0xbc92de76	-0.017928343
154	0xbc3473bb	-0.01101392
155	0x3c8a8232	0.016907785
156	0x3bbbfd34	0.0057369713
157	0x3c18bb69	0.009322026
158	0x3c9ff3e0	0.019525468
159	0xbd02dda3	-0.03194965
160	0x3cb3f1ca	0.02196588
161	0xbc9e2a1c	-0.019307189
162	0x3cf802af	0.030274717
163	0x3c3b1bec	0.011420231
164	0x3ced1a6c	0.028943263
165	0x3cd986f6	0.026553612
166	0xbc831f62	-0.016006175
167	0xbcc43e22	-0.023955408
168	0x3c3280e4	0.010894988
169	0xbc2440ad	-0.0100251855
170	0xbc474958	-0.012163483
171	0x3c073f35	0.008254816
172	0x3be77a35	0.0070641288
173	0xbcf6849e	-0.030092534
174	0x3cd228a1	0.025654139
175	0xbcae72e5	-0.02129502
176	0xbc55a864	-0.013040636
177	0x3cadb01c	0.02120214
178	0xbb1605ed	-0.0022891716
179	0x3cbab0f5	0.022789458
180	0x3c2e8225	0.010651146
181	0xbd007131	-0.031357948
182	0xbbc6b02e	-0.0060634827
183	0xbcdd6c1a	-0.027029086
184	0xbbfa3504	-0.0076357145
185	0xbcbaf1d2	-0.022820387
186	0x3c49ebd0	0.0123242885
187	0x3b0083ac	0.0019609733
188	0x3c5f85bc	0.013642725
189	0x3cc91a9c	0.024548821
190	0xbbdfe4c5	-0.0068326914
191	0xbc2254a7	-0.009907878
192	0x3c6ffd9c	0.0146478675
193	0x3cce8d7b	0.025213948
194	0xbccb18f0	-0.024792165
195	0xbc24eda4	-0.010066424
196	0x3c82354d	0.015894556
197	0x3bb32003	0.0054664626
198	0x3c026e4c	0.007960867
199	0x3c44397d	0.011976597
200	0xbcd347cd	-0.025791073
201	0xbcdb1355	-0.026742617
202	0xbbd21236	-0.0064108623
203	0xbc2a8f95	-0.010410209
204	0xbce3b54d	-0.027796412
205	0xbc939eef	-0.018020121
206	0xbbc5f56e	-0.0060412204
207	0xbceac4f9	-0.028658377
208	0xbbfd6d62	-0.0077339867
209	0xbb9ab2f3	-0.0047210394
210	0xbc5045ef	-0.012711986
211	0x3cb00550	0.021486908
212	0xbc962011	-0.018325837
213	0xbce395de	-0.027781423
214	0x3cb342be	0.021882411
215	0xbc051f8e	-0.008125199
216	0x3c1880d4	0.009308059
217	0x3cd8af55	0.026450792
218	0xbca5c5d3	-0.020235932
219	0xbab392f7	-0.0013700415
220	0x3c3160a7	0.010826266
221	0xbcba8692	-0.022769246
222	0x3cbd4298	0.023103043
223	0x3c2f512e	0.010700507
224	0x3cc57e90	0.024108201
225	0xbc830790	-0.015994817
226	0xbc35a063	-0.011085602
227	0xbb8e2bde	-0.0043387255
228	0xbcd76dfa	-0.026297558
229	0x3b4c5b75	0.0031182442
230	0xbccce59c	-0.02501183
231	0xbc290196	-0.0103153195
232	0x3c4f3c12	0.012648599
233	0x3bc0f323	0.005888359
234	0x3cac00de	0.020996507
235	0xbcc2d84b	-0.023784777
236	0xbcdeb5d8	-0.02718632
237	0xbc782560	-0.01514563
238	0xbce382de	-0.027772363
239	0x3b809b0a	0.003924732
240	0x3c2b1a86	0.010443335
241	0x3d1f4588	0.03888467
242	0x3bf6cdca	0.007531856
243	0x3a08cbce	0.00052183575
244	0x3ca26162	0.019821826
245	0x3bc5dcbc	0.0060382765
246	0x3c0d9325	0.008641039
247	0xbc2e26fb	-0.010629411
248	0xbc01ac86	-0.007914668
249	0xbc20aa40	-0.009806216
250	0x3c00b256	0.007855019
251	0xbc250863	-0.0100728
252	0xbc811826	-0.015758585
253	0xbbeaeaef	-0.0071691195
254	0x3cac4756	0.02103011
255	0xbc792101	-0.015205623

MatMul_1 f4 [32, 32]
0	0x3d7411a2	0.05958713
1	0xbd058c0b	-0.03260426
2	0x3d5e3947	0.054253843
3	0x3c0c966e	0.008580787
4	0x3dd24017	0.102661304
5	0x3db8833e	0.090094075
6	0xbe16bd51	-0.14720656
7	0xbe2f46a4	-0.17116791
8	0x3d6fca9f	0.058542844
9	0x3d07f030	0.033188045
10	0x3d6dd9f3	0.05806918
11	0x3dcda2b8	0.10040802
12	0xbd98b4f6	-0.074563906
13	0x3db573ad	0.08859954
14	0x3e297dc5	0.16551884
15	0x3d83af62	0.06429936
16	0xbd5ab6fe	-0.05339717
17	0xbdb99826	-0.09062223
18	0xbdf75f21	-0.12078691
19	0xbe171616	-0.14754519
20	0x3e1316e0	0.14364195
21	0xbde2c09a	-0.11071892
22	0xbb397ffb	-0.0028305042
23	0xbe199342	-0.1499758
24	0xbcd6d2ea	-0.026223619
25	0x3e2f25c4	0.1710425
26	0xbd41a079	-0.04727218
27	0xbe0b58fa	-0.1360816
28	0xbe1bf1f1	-0.15229012
29	0x3e07095e	0.13187167
30	0xbd772bd7	-0.060344543
31	0xbdbba7ad	-0.09162841
32	0x3c932f74	0.017966963
33	0x3d5a864b	0.053350728
34	0x3e38412b	0.1799361
35	0xbdbc9eae	-0.09209953
36	0x3d1ca7ae	0.03824585
37	0x3e20f4fb	0.15718453
38	0x3ddddd2f	0.10833203
39	0xbe22c9e2	-0.15897325
40	0x3e1cd4dd	0.15315576
41	0x3e216645	0.15761669
42	0xbe124db2	-0.14287451
43	0xbc257b81	-0.010100246
44	0xbe36b0b9	-0.17840852
45	0x3de08cf7	0.10964387
46	0xbe3369c2	-0.17520812
47	0x3debf0c3	0.11520531
48	0xbda61d5d	-0.08111069
49	0x3e10ed19	0.14152946
50	0x3e15e0d9	0.14636554
51	0xbca151d3	-0.019692337
52	0xbd693b57	-0.056941357
53	0x3d7b6fa0	0.06138575
54	0x3dda3f16	0.10656564
55	0xbdda65f8	-0.1066398
56	0x3cb420b1	0.021988245
57	0x3da60a42	0.08107425
58	0xbe07e24c	-0.13269919
59	0xbdb5591c	-0.08854887
60	0xbd17f8be	-0.037102453
61	0x3db6c44a	0.08924158
62	0x3ca2fabf	0.019894956
63	0x3dca5650	0.09879744
64	0xbd9fd0a3	-0.07803466
65	0x3e0dea22	0.13858846
66	0x3e0ba223	0.13636069
67	0x3d84f8c5	0.064927615
68	0xbcb5fff2	-0.02221677
69	0x3e0ad9e1	0.13559677
70	0xbca2c625	-0.019869873
71	0x3d3e1531	0.04640693
72	0x3e06a4d3	0.13148813
73	0xbe150b62	-0.14555123
74	0x3c6d409e	0.014480738
75	0xbe3fde1f	-0.18737076
76	0x3c8caf09	0.017173307
77	0x3b3d5885	0.0028891873
78	0xbd12ff8c	-0.03588824
79	0xbdefdac5	-0.11711649
80	0x3e0a7653	0.135217
81	0x3e018c30	0.12651134
82	0xbd4b2935	-0.049599845
83	0xbdf691f8	-0.1203956
84	0xbe0d2060	-0.13781881
85	0x3d0c2ad1	0.03422052
86	0xbd83e433	-0.0644001
87	0xbd8f51c9	-0.06998021
88	0xbd4a03fe	-0.049320213
89	0xbd9667ca	-0.07344015
90	0x3dc0185b	0.093796454
91	0x3e085491	0.1331351
92	0x3d6c57ca	0.05770091
93	0xbdf98f7d	-0.12185571
94	0x3d630219	0.055421922
95	0xbd82aa56	-0.06380145
96	0x3d8f39c1	0.069934376
97	0xbe2b885a	-0.16751233
98	0xbe02d34b	-0.12775914
99	0xbd1e2cf0	-0.038617074
100	0x3d82e534	0.06391373
101	0x3e1856e1	0.14876892
102	0x3e09c92a	0.13455644
103	0xbe38a402	-0.18031314
104	0xbdaa4b37	-0.08315127
105	0xbd8a1550	-0.06742346
106	0xbd897fc4	-0.067138225
107	0xbe20a91c	-0.1568951
108	0x3bf336c1	0.0074222987
109	0x3e2f37b4	0.17111093
110	0xbc326d40	-0.010890305
111	0x3e11d439	0.14241113
112	0xbd0a1547	-0.033711698
113	0xbd0c8574	-0.03430696
114	0x3e044951	0.12918593
115	0x3c4d2a22	0.012522252
116	0x3dbad4c8	0.09122616
117	0x3d9433e8	0.07236463
118	0xbe2d1735	-0.16903384
119	0x3c971b96	0.018445771
120	0xbdecf5c6	-0.11570315
121	0x3dd4eb10	0.10396397
122	0x3dc56923	0.09639194
123	0x3e042b72	0.12907198
124	0xbd45bcb4	-0.048275664
125	0x3d8893eb	0.06668838
126	0x3e28836d	0.16456385
127	0x3d36e7aa	0.044654526
128	0x3e221dd7	0.15831695
129	0x3e0a352f	0.1349685
130	0xbccb699a	-0.024830628
131	0xbde3b062	-0.11117627
132	0xbdbdced4	-0.09267965
133	0x3e23d5e7	0.15999566
134	0x3c211ea4	0.009833965
135	0xbe21de8d	-0.15807553
136	0x3e3a246f	0.18177961
137	0x3e10b6f9	0.14132299
138	0x3d4a5d1c	0.049405202
139	0xbd1d4f96	-0.038405977
140	0x3d5e83a5	0.054324765
141	0xbe1cf6ef	-0.15328573
142	0x3da8c6ce	0.08241044
143	0x3e21520c	0.15753955
144	0xbdc5f911	-0.09666646
145	0x3d02bd04	0.03191854
146	0x3d57c894	0.05268152
147	0x3e28b9a6	0.1647707
148	0xbd1d8aad	-0.03846233
149	0xbd74135f	-0.059588786
150	0x3b6064ba	0.0034239725
151	0x3c75f613	0.015012282
152	0x3da25bf5	0.07927696
153	0x3e54ff09	0.20800413
154	0x3d619238	0.055071086
155	0xbdd5a127	-0.10431128
156	0xbd48327d	-0.048876274
157	0x3de04dbf	0.10952329
158	0x3dca553a	0.09879537
159	0x3d6dae07	0.058027294
160	0x3e0a5bbe	0.1351156
161	0x3dd08f83	0.10183623
162	0xbdbd74b2	-0.092507735
163	0xbe070f6b	-0.13189475
164	0xbdfd953c	-0.1238198
165	0x3e033d51	0.12816359
166	0xbe336862	-0.17520288
167	0x3daa0df6	0.08303444
168	0x3d9d3bed	0.076774456
169	0x3de5f2da	0.11227961
170	0xbd16ed9a	-0.03684769
171	0x3cbae7f6	0.022815686
172	0x3dc66b7a	0.09688468
173	0x3dfd7cd2	0.12377323
174	0x3daf6e00	0.08565903
175	0xbd1509a5	-0.03638615
176	0x3d48c310	0.04901415
177	0x3e026437	0.12733541
178	0x3da81472	0.08207025
179	0x3c429911	0.011877314
180	0xbdec8610	-0.11549008
181	0xbc7649c9	-0.01503224
182	0xbd8b305e	-0.06796335
183	0x3c8bf680	0.017085314
184	0xbdc1bf16	-0.09460275
185	0x3ce35603	0.027750975
186	0x3cb0ddb0	0.021590084
187	0xbdda0d2a	-0.10647042
188	0x3cf474f7	0.02984093
189	0x3df5708d	0.11984358
190	0x3d6593f0	0.056049287
191	0x3e2d03b3	0.16895942
192	0xbd8740b6	-0.066041395
193	0xbdd48495	-0.103768505
194	0xbde5afc5	-0.11215166
195	0xbbbb8b4f	-0.005723394
196	0xbdc943cb	-0.098273836
197	0xbdb47bee	-0.088127
198	0x3e2190e2	0.15777925
199	0x3dcac880	0.099015236
200	0x3d9d7362	0.07688023
201	0xbdeae8c6	-0.11470179
202	0x3daacca4	0.08339813
203	0xbc82677f	-0.015918491
204	0xbd94c6d8	-0.07264489
205	0x3de28d26	0.11062078
206	0xbe00daac	-0.12583417
207	0x3dab07f1	0.08351124
208	0x3cb70082	0.02233911
209	0xbe23b81c	-0.15988201
210	0x3e1f657a	0.15566054
211	0x3a932d66	0.001122874
212	0x3cf4ea65	0.029896924
213	0xbb7083c6	-0.0036699637
214	0xbc422077	-0.011848561
215	0x3dc3ac21	0.09554315
216	0xbdf5558e	-0.11979209
217	0x3db23c3b	0.08702894
218	0x3de7d6b6	0.1132025
219	0xbe2df5b5	-0.16988261
220	0x3cd1b96a	0.025601108
221	0xbd7d4c5e	-0.061840408
222	0xbe245663	-0.16048579
223	0x3dec7cfe	0.11547278
224	0xbe099f5c	-0.13439697
225	0xbde5e96f	-0.112261645
226	0xbadbbbbd	-0.0016764324
227	0x3e34153c	0.17586225
228	0x3d0922fa	0.033480622
229	0x3dbd3f00	0.09240532
230	0x3d83c871	0.064347155
231	0xbca5596f	-0.020184247
232	0x3d61f6e0	0.05516708
233	0x3d5593e1	0.05214298
234	0x3d987d00	0.07445717
235	0x3e206094	0.15661842
236	0x3dd04181	0.10168744
237	0x3dc91303	0.09818079
238	0x3de58a7d	0.11208055
239	0xbd34baac	-0.044123337
240	0x3e2c95e1	0.1685405
241	0x3dad5273	0.084629916
242	0xbb9209af	-0.004456721
243	0xbe02a736	-0.12759098
244	0x3e44f80e	0.1923525
245	0xbd97ac18	-0.07405871
246	0xbd5bb852	-0.05364258
247	0x3cb249c9	0.0217637
248	0xbe142129	-0.14465775
249	0xbd93b636	-0.07212488
250	0x3e19192e	0.14951012
251	0xbd67ee50	-0.056623757
252	0x3e01ab8f	0.126631
253	0xbd7f6d3e	-0.06236004
254	0x3c9949e5	0.018711993
255	0xbdac94b3	-0.084267996

MatMul_2 f4 [1, 32]
0	0x3b1abfb7	0.0023612806
1	0x3e30d51a	0.17268792
2	0x3e28e366	0.16492996
3	0x3c299f4f	0.010352924
4	0x3de02a7b	0.109456025
5	0x3e1c5307	0.15266047
6	0xbea11fac	-0.31469476
7	0xbeacb52f	-0.33731982
8	0xbd093bbe	-0.03350424
9	0xbe40779b	-0.18795626
10	0xbd821c9c	-0.06353113
11	0x3e61540e	0.2200472
12	0xbeb6a2fc	-0.35671222
13	0xbe96205f	-0.29321572
14	0x3e0a3012	0.134949
15	0x3de66c04	0.11251071
16	0x3dd55a39	0.10417599
17	0x3d86312b	0.06552347
18	0x3e385f77	0.18005167
19	0x3d853a4c	0.0650526
20	0xbe9f8a89	-0.3116038
21	0xbe9ea79d	-0.30987254
22	0x3e05c73a	0.1306428
23	0xbe9e69a8	-0.30939984
24	0x3e3cf4b4	0.18452722
25	0x3df94ce5	0.121728696
26	0x3e156df6	0.14592728
27	0xbea9a7bc	-0.33135784
28	0x3dd3141d	0.10306571
29	0x3e69c0d4	0.22827464
30	0x3dff76de	0.12473844
31	0x3b821a0c	0.00397039
