mila.tflite (tflite, 63568 bytes, 18 tensors)

tfl.pseudo_qconst1 i1 [1, 2368] scale=0.0060879355 zero_point=0
0.17655014 -0.28613296 0.07914316 0.0060879355 0.024351742 -0.17655014 -0.28613296 -0.103494905
-0.07305522 -0.23134156 -0.048703484 -0.11567078 -0.103494905 -0.15219839 -0.07305522 0.024351742
-0.23134156 -0.19481394 -0.11567078 -0.2922209 -0.11567078 -0.060879357 -0.060879357 -0.121758714
-0.17655014 -0.24960536 -0.34092438 -0.22525361 -0.06696729 -0.16437426 -0.060879357 -0.042615548
-0.17046219 0.07305522 0.042615548 -0.24960536 -0.09131903 -0.085231096 0.07914316 -0.12784664
-0.17655014 -0.09740697 -0.13393459 -0.121758714 -0.018263806 0.0 -0.15219839 -0.085231096
-0.07914316 -0.09131903 -0.19481394 -0.048703484 0.09740697 0.09740697 0.085231096 -0.14002252
-0.12784664 0.14611045 -0.12784664 -0.15828632 -0.26178122 -0.16437426 -0.35310027 0.09131903
0.09131903 -0.15828632 0.048703484 0.012175871 0.07305522 -0.23742948 -0.07305522 -0.09740697
-0.024351742 -0.15828632 -0.060879357 -0.018263806 -0.060879357 -0.085231096 0.030439679 0.07305522
-0.13393459 -0.121758714 -0.042615548 -0.17046219 -0.09131903 -0.05479142 0.05479142 0.0
-0.121758714 -0.12784664 -0.17655014 -0.03652761 0.0060879355 0.018263806 0.03652761 0.018263806
-0.11567078 0.103494905 0.0060879355 -0.15828632 -0.048703484 -0.024351742 0.012175871 -0.048703484
-0.20698981 -0.09740697 -0.042615548 -0.048703484 0.012175871 -0.018263806 -0.18872601 -0.042615548
0.03652761 -0.05479142 -0.042615548 0.06696729 0.048703484 0.13393459 0.10958284 -0.024351742
0.03652761 0.15828632 -0.03652761 -0.14002252 -0.17655014 0.0 -0.24960536 0.06696729
0.06696729 -0.07914316 0.030439679 -0.024351742 -0.042615548 -0.10958284 0.0 -0.09131903
-0.121758714 -0.12784664 -0.012175871 -0.060879357 -0.042615548 -0.103494905 0.024351742 0.024351742
-0.103494905 0.03652761 0.03652761 -0.060879357 -0.024351742 -0.10958284 0.20090187 -0.0060879355
-0.060879357 -0.012175871 -0.12784664 -0.07305522 0.048703484 0.0060879355 -0.012175871 0.012175871
-0.085231096 0.14002252 0.024351742 -0.13393459 -0.012175871 0.0 0.042615548 -0.048703484
-0.17046219 -0.09740697 0.121758714 0.0 -0.018263806 0.012175871 -0.18872601 0.0
0.030439679 -0.14002252 -0.042615548 0.07914316 0.042615548 0.085231096 0.12784664 -0.06696729
-0.030439679 0.07305522 -0.05479142 0.0060879355 -0.103494905 -0.024351742 -0.18263806 0.05479142
0.024351742 -0.121758714 -0.085231096 -0.085231096 -0.060879357 -0.10958284 -0.018263806 -0.048703484
-0.20698981 -0.09131903 -0.103494905 -0.19481394 -0.0060879355 -0.09131903 0.030439679 0.07914316
-0.07305522 0.012175871 0.103494905 -0.0060879355 -0.15219839 -0.085231096 0.16437426 0.0060879355
-0.0060879355 0.11567078 -0.048703484 -0.09131903 -0.0060879355 0.030439679 0.0060879355 -0.060879357
-0.018263806 0.07914316 0.07305522 -0.09131903 -0.042615548 0.05479142 0.05479142 -0.060879357
-0.05479142 -0.0060879355 0.048703484 -0.060879357 -0.11567078 0.024351742 -0.121758714 0.0
0.048703484 -0.09740697 -0.0060879355 0.018263806 0.060879357 0.085231096 0.18263806 -0.05479142
-0.07914316 0.09740697 0.085231096 0.018263806 -0.09131903 0.042615548 -0.21307774 0.060879357
00000000: 1dd1 0d01 04e3 d1ef f4da f8ed efe7 f404
00000010: dae0 edd0 edf6 f6ec e3d7 c8db f5e5 f6f9
00000020: e40c 07d7 f1f2 0deb e3f0 eaec fd00 e7f2
00000030: f3f1 e0f8 1010 0ee9 eb18 ebe6 d5e5 c60f
00000040: 0fe6 0802 0cd9 f4f0 fce6 f6fd f6f2 050c
00000050: eaec f9e4 f1f7 0900 eceb e3fa 0103 0603
00000060: ed11 01e6 f8fc 02f8 def0 f9f8 02fd e1f9
00000070: 06f7 f90b 0816 12fc 061a fae9 e300 d70b
00000080: 0bf3 05fc f9ee 00f1 eceb fef6 f9ef 0404
00000090: ef06 06f6 fcee 21ff f6fe ebf4 0801 fe02
000000a0: f217 04ea fe00 07f8 e4f0 1400 fd02 e100
000000b0: 05e9 f90d 070e 15f5 fb0c f701 effc e209
000000c0: 04ec f2f2 f6ee fdf8 def1 efe0 fff1 050d
000000d0: f402 11ff e7f2 1b01 ff13 f8f1 ff05 01f6
000000e0: fd0d 0cf1 f909 09f6 f7ff 08f6 ed04 ec00
000000f0: 08f0 ff03 0a0e 1ef7 f310 0e03 f107 dd0a

tfl.pseudo_qconst3 i1 [64, 1, 1, 64]
32 23 50 92 60 35 -127 101
38 50 -93 -36 -35 29 -20 43
41 -4 -45 -3 -51 108 32 -29
65 35 -32 2 -14 -11 -117 -22
73 59 -51 -18 -19 14 -15 33
62 0 84 41 -22 60 -47 -11
-65 41 -76 95 60 9 -15 -21
-35 -5 44 -95 -20 -14 -127 -46
-45 -66 -98 -100 -29 -93 -38 38
91 64 23 80 -11 -28 27 -40
34 -7 15 -75 71 30 66 34
-33 86 -39 34 -118 26 -18 -49
-7 12 -79 -60 -1 70 -73 -18
38 31 -16 -38 36 -112 -57 49
-21 -58 127 -5 -4 7 -7 49
-26 -51 73 -28 56 -47 74 53
-90 -34 5 -94 -75 -103 -13 29
-5 -6 -48 6 -27 56 -14 -12
-80 15 10 -33 8 72 32 63
-56 87 36 -42 -33 -59 3 120
-76 -75 -20 -10 127 42 37 4
3 -73 23 -15 11 -24 5 71
21 2 48 8 90 -114 -50 -44
-36 -16 -23 17 5 -13 27 -29
54 -35 2 10 -12 -56 -57 15
70 39 -22 -87 -4 12 -80 25
16 71 -10 -19 -111 31 28 -33
83 31 35 54 -44 -94 -9 -27
20 -11 -28 23 -4 22 -16 42
-44 -58 109 -14 -43 72 -39 -27
-127 69 -6 16 27 19 -43 -42
-56 -39 25 15 59 -28 49 -32
00000000: 2017 325c 3c23 8165 2632 a3dc dd1d ec2b
00000010: 29fc d3fd cd6c 20e3 4123 e002 f2f5 8bea
00000020: 493b cdee ed0e f121 3e00 5429 ea3c d1f5
00000030: bf29 b45f 3c09 f1eb ddfb 2ca1 ecf2 81d2
00000040: d3be 9e9c e3a3 da26 5b40 1750 f5e4 1bd8
00000050: 22f9 0fb5 471e 4222 df56 d922 8a1a eecf
00000060: f90c b1c4 ff46 b7ee 261f f0da 2490 c731
00000070: ebc6 7ffb fc07 f931 e6cd 49e4 38d1 4a35
00000080: a6de 05a2 b599 f31d fbfa d006 e538 f2f4
00000090: b00f 0adf 0848 203f c857 24d6 dfc5 0378
000000a0: b4b5 ecf6 7f2a 2504 03b7 17f1 0be8 0547
000000b0: 1502 3008 5a8e ced4 dcf0 e911 05f3 1be3
000000c0: 36dd 020a f4c8 c70f 4627 eaa9 fc0c b019
000000d0: 1047 f6ed 911f 1cdf 531f 2336 d4a2 f7e5
000000e0: 14f5 e417 fc16 f02a d4c6 6df2 d548 d9e5
000000f0: 8145 fa10 1b13 d5d6 c8d9 190f 3be4 31e0

tfl.pseudo_qconst5 i1 [1, 23, 1, 64]
67 -115 -106 -127 114 -127 1 -8
-13 81 127 81 57 79 38 14
9 -4 -10 -124 -25 -29 -127 16
73 127 5 127 82 -76 -5 23
36 14 -90 74 -127 124 -15 -85
27 -64 -106 70 -127 62 67 -112
51 -17 112 127 -5 -127 59 117
43 95 25 55 -51 -91 48 -94
55 -88 -97 -111 104 -73 0 -5
-14 63 98 118 45 56 42 -11
8 -15 -47 -127 -22 -14 -108 11
127 91 29 122 117 -53 -18 50
127 16 -118 23 -99 80 -18 -81
39 -33 -71 70 -119 57 94 -127
22 -41 80 50 -59 -90 82 82
72 75 41 62 -51 -114 61 -118
26 -113 -81 -84 127 -101 -29 0
-10 48 96 117 27 65 -2 2
16 88 41 -103 -67 -22 -104 68
119 47 24 109 52 -68 22 0
118 15 -107 20 -105 62 42 -7
0 -11 -38 46 -107 39 99 -115
-85 21 89 108 -13 -58 40 51
68 66 38 111 -24 -93 32 -57
41 -87 -52 -90 67 -47 -9 -6
66 31 70 127 -32 127 -2 -9
10 100 -2 -80 -42 18 -81 96
-3 17 28 26 -50 -127 -9 13
91 17 -65 23 -92 35 41 -5
-33 -23 -40 23 -71 27 56 -38
-95 81 50 62 -19 -27 91 48
64 32 4 127 49 -126 -19 -75
00000000: 438d 9681 7281 01f8 f351 7f51 394f 260e
00000010: 09fc f684 e7e3 8110 497f 057f 52b4 fb17
00000020: 240e a64a 817c f1ab 1bc0 9646 813e 4390
00000030: 33ef 707f fb81 3b75 2b5f 1937 cda5 30a2
00000040: 37a8 9f91 68b7 00fb f23f 6276 2d38 2af5
00000050: 08f1 d181 eaf2 940b 7f5b 1d7a 75cb ee32
00000060: 7f10 8a17 9d50 eeaf 27df b946 8939 5e81
00000070: 16d7 5032 c5a6 5252 484b 293e cd8e 3d8a
00000080: 1a8f afac 7f9b e300 f630 6075 1b41 fe02
00000090: 1058 2999 bdea 9844 772f 186d 34bc 1600
000000a0: 760f 9514 973e 2af9 00f5 da2e 9527 638d
000000b0: ab15 596c f3c6 2833 4442 266f e8a3 20c7
000000c0: 29a9 cca6 43d1 f7fa 421f 467f e07f fef7
000000d0: 0a64 feb0 d612 af60 fd11 1c1a ce81 f70d
000000e0: 5b11 bf17 a423 29fb dfe9 d817 b91b 38da
000000f0: a151 323e ede5 5b30 4020 047f 3182 edb5

tfl.pseudo_qconst7 i1 [64, 1, 1, 64]
52 -127 37 -31 48 -66 -43 38
37 10 40 80 -1 -3 -9 70
-26 21 54 -25 3 47 47 -40
56 -26 -21 -4 23 -29 11 -38
-63 11 24 22 32 -29 -8 -8
-37 44 10 -11 -28 54 -25 -8
-43 5 1 -35 -62 4 69 -24
-69 17 -35 -49 -24 -24 -39 16
57 -81 -18 -44 2 -58 -19 -77
30 95 71 -9 15 23 50 -11
8 31 -28 -16 85 24 -45 5
-9 15 -127 11 7 22 27 -94
-71 -11 -33 53 102 -33 -17 -26
10 12 -45 2 -26 59 1 4
-53 51 -52 6 -64 71 1 -8
19 21 99 -35 58 65 -57 54
58 -81 11 -51 96 -38 37 72
-31 11 67 -19 -88 41 -66 20
9 30 -12 -20 16 -52 51 58
66 5 -99 -84 -14 -57 -51 54
-51 -45 127 -49 52 -95 58 68
26 -17 -37 66 71 -59 -39 -93
-14 41 17 60 -64 42 62 43
-7 -15 -86 8 -30 14 9 -52
47 -35 -44 -7 -6 10 20 -37
-20 42 -57 -14 41 17 -16 -90
-15 18 3 47 -9 -31 -2 -23
-16 -63 -2 -21 -40 -1 -83 -24
-79 57 13 16 -7 6 12 62
62 9 -77 27 -13 -10 -20 -68
86 77 -7 2 -35 -18 111 7
54 -35 60 -49 106 127 53 -67
00000000: 3481 25e1 30be d526 250a 2850 fffd f746
00000010: e615 36e7 032f 2fd8 38e6 ebfc 17e3 0bda
00000020: c10b 1816 20e3 f8f8 db2c 0af5 e436 e7f8
00000030: d505 01dd c204 45e8 bb11 ddcf e8e8 d910
00000040: 39af eed4 02c6 edb3 1e5f 47f7 0f17 32f5
00000050: 081f e4f0 5518 d305 f70f 810b 0716 1ba2
00000060: b9f5 df35 66df efe6 0a0c d302 e63b 0104
00000070: cb33 cc06 c047 01f8 1315 63dd 3a41 c736
00000080: 3aaf 0bcd 60da 2548 e10b 43ed a829 be14
00000090: 091e f4ec 10cc 333a 4205 9dac f2c7 cd36
000000a0: cdd3 7fcf 34a1 3a44 1aef db42 47c5 d9a3
000000b0: f229 113c c02a 3e2b f9f1 aa08 e20e 09cc
000000c0: 2fdd d4f9 fa0a 14db ec2a c7f2 2911 f0a6
000000d0: f112 032f f7e1 fee9 f0c1 feeb d8ff ade8
000000e0: b139 0d10 f906 0c3e 3e09 b31b f3f6 ecbc
000000f0: 564d f902 ddee 6f07 36dd 3ccf 6a7f 35bd

tfl.pseudo_qconst9 i1 [1, 15, 1, 32]
-127 44 -19 51 90 -92 49 58
2 -127 -55 99 115 -127 -123 -74
127 103 -65 -127 -127 44 74 -43
-64 -36 32 127 -78 127 127 -49
-109 -47 -44 67 109 -114 30 56
-26 -36 -53 26 76 -106 -127 -27
99 81 22 -99 -111 69 104 -82
-10 -70 44 110 -52 82 110 -113
-37 20 -72 61 127 -127 -69 59
-28 45 -38 69 45 -112 -28 -108
45 92 5 -95 -79 106 127 -25
84 -35 24 56 -40 94 57 -63
-80 -33 -47 51 69 -100 83 69
-86 79 -18 -14 -61 -66 -63 -127
59 70 -45 -88 -64 101 72 29
99 18 81 114 35 46 83 -127
-75 -127 -64 127 51 -68 123 64
-57 91 15 -42 -42 -64 -97 -76
47 -10 33 -57 -13 127 86 -37
127 -4 127 -61 -21 74 72 -62
16 36 -15 95 -55 -7 127 74
-58 51 8 -7 0 -36 -9 -122
38 16 25 -33 -18 24 33 10
100 -50 122 -41 22 82 44 50
-7 52 85 46 -15 53 64 120
-5 14 39 -45 -85 -29 -47 -64
25 65 127 -4 -6 113 -34 -25
54 -27 35 -94 22 58 10 84
19 71 127 -14 -90 107 65 127
-21 18 44 39 -126 -2 1 -7
32 11 40 -64 7 61 -43 14
76 -31 -66 -39 73 47 -2 102
00000000: 812c ed33 5aa4 313a 0281 c963 7381 85b6
00000010: 7f67 bf81 812c 4ad5 c0dc 207f b27f 7fcf
00000020: 93d1 d443 6d8e 1e38 e6dc cb1a 4c96 81e5
00000030: 6351 169d 9145 68ae f6ba 2c6e cc52 6e8f
00000040: db14 b83d 7f81 bb3b e42d da45 2d90 e494
00000050: 2d5c 05a1 b16a 7fe7 54dd 1838 d85e 39c1
00000060: b0df d133 459c 5345 aa4f eef2 c3be c181
00000070: 3b46 d3a8 c065 481d 6312 5172 232e 5381
00000080: b581 c07f 33bc 7b40 c75b 0fd6 d6c0 9fb4
00000090: 2ff6 21c7 f37f 56db 7ffc 7fc3 eb4a 48c2
000000a0: 1024 f15f c9f9 7f4a c633 08f9 00dc f786
000000b0: 2610 19df ee18 210a 64ce 7ad7 1652 2c32
000000c0: f934 552e f135 4078 fb0e 27d3 abe3 d1c0
000000d0: 1941 7ffc fa71 dee7 36e5 23a2 163a 0a54
000000e0: 1347 7ff2 a66b 417f eb12 2c27 82fe 01f9
000000f0: 200b 28c0 073d d50e 4ce1 bed9 492f fe66

tfl.pseudo_qconst11 i1 [1, 9, 1, 32]
-97 14 -42 96 37 64 -127 -10
-23 -22 -47 -59 -62 17 -60 107
-29 18 -73 127 88 60 9 -127
-89 38 -78 9 47 -91 -11 -27
-127 -125 -28 54 -1 97 -30 -74
-14 25 -4 59 4 40 -102 101
10 127 87 75 122 9 37 -41
-17 -13 -39 -27 7 -71 -15 53
-54 -86 0 -127 -46 74 -118 1
-46 -16 3 29 32 -19 6 127
-70 25 40 95 127 77 93 -34
-34 -11 12 38 2 -36 -30 127
17 -69 -4 2 -78 25 60 -54
-6 2 -41 37 81 42 47 64
-75 17 60 -100 98 -117 92 -26
-89 89 33 41 13 -78 7 122
109 50 12 -32 -33 -73 69 9
103 -48 -4 -17 127 -23 -32 36
-127 50 -88 6 98 -118 5 -29
-63 55 127 87 -16 -23 -11 93
74 127 -16 7 39 -127 3 88
122 -46 -7 -95 78 21 -35 -43
-65 41 -43 51 47 81 118 -40
-15 7 102 7 36 -30 -19 85
60 113 -18 -34 107 -113 -118 116
127 -78 -83 -127 101 -49 -34 -51
-93 30 7 14 77 124 112 1
-19 26 7 -69 -11 -24 -61 38
77 89 -70 17 127 -58 -10 127
68 -110 -104 -16 32 -39 -127 -1
-64 52 -127 127 82 127 127 19
-86 72 -64 -59 -127 -33 -102 -63
00000000: 9f0e d660 2540 81f6 e9ea d1c5 c211 c46b
00000010: e312 b77f 583c 0981 a726 b209 2fa5 f5e5
00000020: 8183 e436 ff61 e2b6 f219 fc3b 0428 9a65
00000030: 0a7f 574b 7a09 25d7 eff3 d9e5 07b9 f135
00000040: caaa 0081 d24a 8a01 d2f0 031d 20ed 067f
00000050: ba19 285f 7f4d 5dde def5 0c26 02dc e27f
00000060: 11bb fc02 b219 3cca fa02 d725 512a 2f40
00000070: b511 3c9c 628b 5ce6 a759 2129 0db2 077a
00000080: 6d32 0ce0 dfb7 4509 67d0 fcef 7fe9 e024
00000090: 8132 a806 628a 05e3 c137 7f57 f0e9 f55d
000000a0: 4a7f f007 2781 0358 7ad2 f9a1 4e15 ddd5
000000b0: bf29 d533 2f51 76d8 f107 6607 24e2 ed55
000000c0: 3c71 eede 6b8f 8a74 7fb2 ad81 65cf decd
000000d0: a31e 070e 4d7c 7001 ed1a 07bb f5e8 c326
000000e0: 4d59 ba11 7fc6 f67f 4492 98f0 20d9 81ff
000000f0: c034 817f 527f 7f13 aa48 c0c5 81df 9ac1

tfl.pseudo_qconst13 i1 [64, 1, 1, 64]
-73 46 60 -12 -21 77 115 8
64 36 -6 16 -9 -33 93 11
100 15 67 -10 -31 -118 30 14
56 59 -122 -41 18 88 -69 -60
-59 22 125 13 -21 24 66 94
22 -103 121 71 127 -36 69 -39
39 51 19 22 47 -55 -71 -44
-20 89 7 63 36 51 -21 56
-87 0 -75 -22 -24 -15 -121 -42
39 36 -31 -12 -42 -114 -118 6
-127 12 -19 -34 -17 41 -65 42
-66 5 70 21 89 -4 -10 30
1 -92 111 -17 -5 -8 -46 63
54 62 -32 10 -58 22 -62 -35
-26 62 35 4 -13 -24 77 -35
18 -37 -3 41 -60 -3 12 70
-9 -48 19 -81 37 -47 66 21
-74 -48 50 -101 9 -38 -26 25
-3 -41 3 -2 9 -20 3 -127
-47 -76 49 68 16 -60 -105 31
-32 64 35 57 -67 -36 -22 -17
-37 0 22 1 -63 26 124 0
47 65 27 -17 -32 12 27 -16
-85 4 -3 -5 39 68 -32 39
-13 60 -13 25 -31 -32 -31 31
-41 -8 -77 -22 -127 9 -20 -14
-68 0 -37 -54 -34 39 -22 -6
55 44 51 28 -33 -29 -25 42
-25 -62 11 -44 63 19 -20 40
1 -45 -9 10 -23 10 -35 8
-7 -12 -16 -53 19 4 -18 -9
-52 -78 -35 -43 17 -8 14 -8
00000000: b72e 3cf4 eb4d 7308 4024 fa10 f7df 5d0b
00000010: 640f 43f6 e18a 1e0e 383b 86d7 1258 bbc4
00000020: c516 7d0d eb18 425e 1699 7947 7fdc 45d9
00000030: 2733 1316 2fc9 b9d4 ec59 073f 2433 eb38
00000040: a900 b5ea e8f1 87d6 2724 e1f4 d68e 8a06
00000050: 810c edde ef29 bf2a be05 4615 59fc f61e
00000060: 01a4 6fef fbf8 d23f 363e e00a c616 c2dd
00000070: e63e 2304 f3e8 4ddd 12db fd29 c4fd 0c46
00000080: f7d0 13af 25d1 4215 b6d0 329b 09da e619
00000090: fdd7 03fe 09ec 0381 d1b4 3144 10c4 971f
000000a0: e040 2339 bddc eaef db00 1601 c11a 7c00
000000b0: 2f41 1bef e00c 1bf0 ab04 fdfb 2744 e027
000000c0: f33c f319 e1e0 e11f d7f8 b3ea 8109 ecf2
000000d0: bc00 dbca de27 eafa 372c 331c dfe3 e72a
000000e0: e7c2 0bd4 3f13 ec28 01d3 f70a e90a dd08
000000f0: f9f4 f0cb 1304 eef7 ccb2 ddd5 11f8 0ef8

tfl.pseudo_qconst15 i1 [1, 11, 1, 32]
59 64 45 -110 -95 -116 -67 -25
-13 127 23 -58 -40 15 0 106
127 16 -127 91 -127 47 -116 82
-53 60 -75 -2 -117 -127 -124 50
94 47 -86 -24 -77 5 -51 13
-127 101 38 -22 -23 29 51 116
74 13 -110 127 -105 70 0 29
-2 84 -19 -27 -126 -118 -96 117
76 52 -89 21 -87 -67 -59 -9
-119 39 -31 -74 -58 -94 45 67
65 55 -83 111 -122 35 -127 16
36 58 -30 28 -72 -90 -127 95
127 6 45 7 23 35 -46 29
-127 7 -34 -127 -56 -71 15 127
37 45 -29 21 -93 71 -108 -5
44 103 -11 30 -69 -58 -74 81
56 -21 127 -44 16 -94 -117 103
11 78 -82 -106 -57 -44 -27 113
23 85 -8 49 -113 40 57 -6
-57 127 -56 66 -32 53 34 80
49 -33 123 -17 -40 -127 -61 91
-11 123 -76 -28 -68 -49 -29 117
6 66 39 27 -115 -70 17 -4
22 108 -35 57 51 74 -73 50
7 -24 -64 45 -48 -40 -40 -46
85 117 -45 -42 -33 56 21 35
51 127 59 62 -86 -127 6 3
-83 0 25 -6 95 -3 -93 9
-36 53 -122 126 -52 48 -6 -107
75 81 -41 -38 -1 40 32 55
18 76 64 114 -49 -115 -7 -96
-41 -22 14 -37 127 64 -42 127
00000000: 3b40 2d92 a18c bde7 f37f 17c6 d80f 006a
00000010: 7f10 815b 812f 8c52 cb3c b5fe 8b81 8432
00000020: 5e2f aae8 b305 cd0d 8165 26ea e91d 3374
00000030: 4a0d 927f 9746 001d fe54 ede5 828a a075
00000040: 4c34 a715 a9bd c5f7 8927 e1b6 c6a2 2d43
00000050: 4137 ad6f 8623 8110 243a e21c b8a6 815f
00000060: 7f06 2d07 1723 d21d 8107 de81 c8b9 0f7f
00000070: 252d e315 a347 94fb 2c67 f51e bbc6 b651
00000080: 38eb 7fd4 10a2 8b67 0b4e ae96 c7d4 e571
00000090: 1755 f831 8f28 39fa c77f c842 e035 2250
000000a0: 31df 7bef d881 c35b f57b b4e4 bccf e375
000000b0: 0642 271b 8dba 11fc 166c dd39 334a b732
000000c0: 07e8 c02d d0d8 d8d2 5575 d3d6 df38 1523
000000d0: 337f 3b3e aa81 0603 ad00 19fa 5ffd a309
000000e0: dc35 867e cc30 fa95 4b51 d7da ff28 2037
000000f0: 124c 4072 cf8d f9a0 d7ea 0edb 7f40 d67f

tfl.pseudo_qconst17 i1 [1, 7, 1, 32]
-27 -67 66 24 32 4 44 -127
-124 99 -19 24 -16 127 22 24
106 1 95 -35 -88 -90 -63 -33
-69 32 -127 -61 127 26 19 -30
-45 -127 61 -44 -2 -69 22 -33
5 127 14 -12 -47 6 -78 -46
-20 9 45 -10 -114 -95 127 -41
-85 -93 -40 -14 78 98 13 -4
-36 -45 18 57 95 -63 74 -108
3 98 -44 -4 -50 22 -71 39
-37 -125 -30 -126 -63 10 -21 -54
-122 -50 -24 82 -40 127 2 -91
-24 -73 -37 75 41 -114 43 -84
80 42 -12 -17 55 -87 -27 -46
-81 -127 -82 -55 -31 68 26 -11
-127 -127 68 -34 87 -4 -34 -68
-21 -106 -13 33 -77 -127 20 -68
109 31 67 8 98 -106 127 80
-76 46 -82 51 100 46 25 -75
44 -101 106 -102 -51 -13 15 -127
118 3 -127 84 -127 -44 -31 -41
127 66 45 58 127 -90 104 127
-92 97 73 -83 127 127 -23 -52
54 7 80 -127 36 -46 46 -85
127 -42 -29 127 -107 -51 -127 26
73 17 127 127 114 2 -54 -13
127 90 127 127 44 23 2 -127
36 -55 -79 -99 -36 74 127 -38
00000000: e5bd 4218 2004 2c81 8463 ed18 f07f 1618
00000010: 6a01 5fdd a8a6 c1df bb20 81c3 7f1a 13e2
00000020: d381 3dd4 febb 16df 057f 0ef4 d106 b2d2
00000030: ec09 2df6 8ea1 7fd7 aba3 d8f2 4e62 0dfc
00000040: dcd3 1239 5fc1 4a94 0362 d4fc ce16 b927
00000050: db83 e282 c10a ebca 86ce e852 d87f 02a5
00000060: e8b7 db4b 298e 2bac 502a f4ef 37a9 e5d2
00000070: af81 aec9 e144 1af5 8181 44de 57fc debc
00000080: eb96 f321 b381 14bc 6d1f 4308 6296 7f50
00000090: b42e ae33 642e 19b5 2c9b 6a9a cdf3 0f81
000000a0: 7603 8154 81d4 e1d7 7f42 2d3a 7fa6 687f
000000b0: a461 49ad 7f7f e9cc 3607 5081 24d2 2eab
000000c0: 7fd6 e37f 95cd 811a 4911 7f7f 7202 caf3
000000d0: 7f5a 7f7f 2c17 0281 24c9 b19d dc4a 7fda

tfl.pseudo_qconst19 i1 [64, 1, 1, 32]
74 44 127 45 47 55 -92 -13
-79 -5 25 17 12 36 -9 -35
5 -19 -44 9 1 21 30 60
-13 -22 -2 -51 -59 -25 -61 -36
-59 26 53 -25 6 -36 38 -96
23 -8 5 -24 83 36 40 127
26 -13 -6 -49 10 -43 -5 45
-109 90 121 7 -53 40 30 -29
8 -99 -13 -55 43 -39 -38 -23
-45 56 18 -127 -32 -4 25 -30
65 47 -35 -50 -42 -12 36 14
-35 -61 36 -27 -35 -26 -19 87
46 40 -69 -70 -52 -38 -14 20
-38 -40 110 -34 18 -46 -127 42
30 6 -20 -36 -10 -45 30 -42
-29 -22 82 -16 -9 0 -19 -38
-64 -25 30 74 52 54 -65 127
14 -10 -12 -74 17 -8 -67 -37
-77 -54 75 5 -11 28 -2 18
18 28 -45 -73 6 13 54 21
33 -42 -3 -40 -58 35 23 -26
-73 -16 127 -12 -4 16 36 -20
-21 53 48 46 -31 51 32 -32
-68 -121 -18 20 33 -16 45 -39
105 -120 -8 -72 72 -65 -67 103
45 -64 18 -100 4 -72 -57 -14
-74 -50 -63 -74 -77 120 10 119
-127 -46 121 5 59 63 32 101
-97 52 126 50 28 96 -18 -73
-48 52 -45 -30 66 -112 -33 -44
66 -35 -64 94 127 -43 -3 103
7 62 3 -32 56 68 4 -124
00000000: 4a2c 7f2d 2f37 a4f3 b1fb 1911 0c24 f7dd
00000010: 05ed d409 0115 1e3c f3ea fecd c5e7 c3dc
00000020: c51a 35e7 06dc 26a0 17f8 05e8 5324 287f
00000030: 1af3 facf 0ad5 fb2d 935a 7907 cb28 1ee3
00000040: 089d f3c9 2bd9 dae9 d338 1281 e0fc 19e2
00000050: 412f ddce d6f4 240e ddc3 24e5 dde6 ed57
00000060: 2e28 bbba ccda f214 dad8 6ede 12d2 812a
00000070: 1e06 ecdc f6d3 1ed6 e3ea 52f0 f700 edda
00000080: c0e7 1e4a 3436 bf7f 0ef6 f4b6 11f8 bddb
00000090: b3ca 4b05 f51c fe12 121c d3b7 060d 3615
000000a0: 21d6 fdd8 c623 17e6 b7f0 7ff4 fc10 24ec
000000b0: eb35 302e e133 20e0 bc87 ee14 21f0 2dd9
000000c0: 6988 f8b8 48bf bd67 2dc0 129c 04b8 c7f2
000000d0: b6ce c1b6 b378 0a77 81d2 7905 3b3f 2065
000000e0: 9f34 7e32 1c60 eeb7 d034 d3e2 4290 dfd4
000000f0: 42dd c05e 7fd5 fd67 073e 03e0 3844 0484

tfl.pseudo_qconst21 i1 [1, 5, 1, 32]
-99 76 -92 50 119 -76 79 -127
14 -39 -66 14 127 54 -127 -82
-127 -42 -22 -16 127 127 127 116
-127 127 127 -85 119 14 -71 25
-127 71 -46 127 56 -70 65 25
14 24 -107 -49 87 49 -116 -127
3 49 -18 39 22 -32 61 -47
-90 20 70 -4 127 76 -19 56
45 68 55 45 -48 -17 -80 83
75 -42 8 -21 103 127 -103 -39
-43 127 21 -31 119 -48 80 -56
-6 72 -115 -66 127 127 63 47
25 -32 49 48 -121 86 -110 53
-72 -123 73 35 31 47 19 -74
69 45 -93 84 88 0 29 -125
83 -33 -88 94 65 59 19 -37
117 -127 127 -120 -127 127 -127 60
-127 -127 127 127 64 109 -92 -115
56 15 -127 127 -41 -23 -51 -127
-108 -109 56 127 64 15 127 -127
00000000: 9d4c a432 77b4 4f81 0ed9 be0e 7f36 81ae
00000010: 81d6 eaf0 7f7f 7f74 817f 7fab 770e b919
00000020: 8147 d27f 38ba 4119 0e18 95cf 5731 8c81
00000030: 0331 ee27 16e0 3dd1 a614 46fc 7f4c ed38
00000040: 2d44 372d d0ef b053 4bd6 08eb 677f 99d9
00000050: d57f 15e1 77d0 50c8 fa48 8dbe 7f7f 3f2f
00000060: 19e0 3130 8756 9235 b885 4923 1f2f 13b6
00000070: 452d a354 5800 1d83 53df a85e 413b 13db
00000080: 7581 7f88 817f 813c 8181 7f7f 406d a48d
00000090: 380f 817f d7e9 cd81 9493 387f 400f 7f81

tfl.pseudo_qconst23 i1 [32, 5, 1, 40]
16 46 11 17 -5 -65 -39 -44
-36 -36 10 45 18 44 32 -21
-9 -31 -19 -39 -36 -14 19 -19
-60 -68 -102 -62 -25 -61 -19 2
32 15 -2 -6 23 41 7 17
60 67 64 22 -19 -58 -48 -39
14 -5 2 12 4 19 9 35
19 6 9 -38 -5 -22 -24 4
-102 -74 -72 -23 -13 -30 -17 6
22 -26 3 -66 25 27 18 28
62 111 81 36 -29 -25 -29 -50
-37 12 24 2 29 12 22 9
67 40 41 -13 4 -7 -11 -13
-64 -78 -86 -25 2 -61 8 23
20 1 -25 -29 -12 16 5 15
106 127 92 13 0 -24 4 -24
-15 19 -25 48 -5 5 40 43
43 68 74 10 -23 -2 -47 15
-50 -82 -57 -52 -19 -63 25 47
22 10 -38 -30 6 1 46 53
107 98 43 74 26 -5 1 9
-18 -13 -14 34 25 11 2 38
68 37 45 25 27 1 -5 -17
-34 -35 -65 -51 -24 -56 23 22
43 -34 -38 -1 35 64 48 -4
3 -69 -45 -53 -25 -10 107 42
42 38 31 1 -35 -13 30 20
26 28 -10 13 -12 -127 -9 2
7 -40 -62 -49 -18 -58 11 -19
26 8 51 -48 30 -26 26 -24
9 -65 -31 -87 -47 -13 76 75
24 67 36 28 -25 48 44 40
00000000: 102e 0b11 fbbf d9d4 dcdc 0a2d 122c 20eb
00000010: f7e1 edd9 dcf2 13ed c4bc 9ac2 e7c3 ed02
00000020: 200f fefa 1729 0711 3c43 4016 edc6 d0d9
00000030: 0efb 020c 0413 0923 1306 09da fbea e804
00000040: 9ab6 b8e9 f3e2 ef06 16e6 03be 191b 121c
00000050: 3e6f 5124 e3e7 e3ce db0c 1802 1d0c 1609
00000060: 4328 29f3 04f9 f5f3 c0b2 aae7 02c3 0817
00000070: 1401 e7e3 f410 050f 6a7f 5c0d 00e8 04e8
00000080: f113 e730 fb05 282b 2b44 4a0a e9fe d10f
00000090: ceae c7cc edc1 192f 160a dae2 0601 2e35
000000a0: 6b62 2b4a 1afb 0109 eef3 f222 190b 0226
000000b0: 4425 2d19 1b01 fbef dedd bfcd e8c8 1716
000000c0: 2bde daff 2340 30fc 03bb d3cb e7f6 6b2a
000000d0: 2a26 1f01 ddf3 1e14 1a1c f60d f481 f702
000000e0: 07d8 c2cf eec6 0bed 1a08 33d0 1ee6 1ae8
000000f0: 09bf e1a9 d1f3 4c4b 1843 241c e730 2c28

tfl.pseudo_qconst24 i1 [1, 22, 1, 64] scale=0.047137532 zero_point=-128
0.0 0.0 0.0 0.0 0.0 0.0 0.0 0.0
0.0 0.0 0.0 0.0 0.0 0.0 0.0 0.0
0.0 0.0 0.0 0.0 0.0 0.0 0.0 0.0
0.0 0.0 0.0 0.0 0.0 0.0 0.0 0.0
0.0 0.0 0.0 0.0 0.0 0.0 0.0 0.0
0.0 0.0 0.0 0.0 0.0 0.0 0.0 0.0
0.0 0.0 0.0 0.0 0.0 0.0 0.0 0.0
0.0 0.0 0.0 0.0 0.0 0.0 0.0 0.0
0.0 0.0 0.0 0.0 0.0 0.0 0.0 0.0
0.0 0.0 0.0 0.0 0.0 0.0 0.0 0.0
0.0 0.0 0.0 0.0 0.0 0.0 0.0 0.0
0.0 0.0 0.0 0.0 0.0 0.0 0.0 0.0
0.0 0.0 0.0 0.0 0.0 0.0 0.0 0.0
0.0 0.0 0.0 0.0 0.0 0.0 0.0 0.0
0.0 0.0 0.0 0.0 0.0 0.0 0.0 0.0
0.0 0.0 0.0 0.0 0.0 0.0 0.0 0.0
0.0 0.0 0.0 0.0 0.0 0.0 0.0 0.0
0.0 0.0 0.0 0.0 0.0 0.0 0.0 0.0
0.0 0.0 0.0 0.0 0.0 0.0 0.0 0.0
0.0 0.0 0.0 0.0 0.0 0.0 0.0 0.0
0.0 0.0 0.0 0.0 0.0 0.0 0.0 0.0
0.0 0.0 0.0 0.0 0.0 0.0 0.0 0.0
0.0 0.0 0.0 0.0 0.0 0.0 0.0 0.0
0.0 0.0 0.0 0.0 0.0 0.0 0.0 0.0
0.0 0.0 0.0 0.0 0.0 0.0 0.0 0.0
0.0 0.0 0.0 0.0 0.0 0.0 0.0 0.0
0.0 0.0 0.0 0.0 0.0 0.0 0.0 0.0
0.0 0.0 0.0 0.0 0.0 0.0 0.0 0.0
0.0 0.0 0.0 0.0 0.0 0.0 0.0 0.0
0.0 0.0 0.0 0.0 0.0 0.0 0.0 0.0
0.0 0.0 0.0 0.0 0.0 0.0 0.0 0.0
0.0 0.0 0.0 0.0 0.0 0.0 0.0 0.0
00000000: 8080 8080 8080 8080 8080 8080 8080 8080
00000010: 8080 8080 8080 8080 8080 8080 8080 8080
00000020: 8080 8080 8080 8080 8080 8080 8080 8080
00000030: 8080 8080 8080 8080 8080 8080 8080 8080
00000040: 8080 8080 8080 8080 8080 8080 8080 8080
00000050: 8080 8080 8080 8080 8080 8080 8080 8080
00000060: 8080 8080 8080 8080 8080 8080 8080 8080
00000070: 8080 8080 8080 8080 8080 8080 8080 8080
00000080: 8080 8080 8080 8080 8080 8080 8080 8080
00000090: 8080 8080 8080 8080 8080 8080 8080 8080
000000a0: 8080 8080 8080 8080 8080 8080 8080 8080
000000b0: 8080 8080 8080 8080 8080 8080 8080 8080
000000c0: 8080 8080 8080 8080 8080 8080 8080 8080
000000d0: 8080 8080 8080 8080 8080 8080 8080 8080
000000e0: 8080 8080 8080 8080 8080 8080 8080 8080
000000f0: 8080 8080 8080 8080 8080 8080 8080 8080

tfl.pseudo_qconst25 i1 [1, 36, 1, 64] scale=0.020643793 zero_point=-128
0.0 0.0 0.0 0.0 0.0 0.0 0.0 0.0
0.0 0.0 0.0 0.0 0.0 0.0 0.0 0.0
0.0 0.0 0.0 0.0 0.0 0.0 0.0 0.0
0.0 0.0 0.0 0.0 0.0 0.0 0.0 0.0
0.0 0.0 0.0 0.0 0.0 0.0 0.0 0.0
0.0 0.0 0.0 0.0 0.0 0.0 0.0 0.0
0.0 0.0 0.0 0.0 0.0 0.0 0.0 0.0
0.0 0.0 0.0 0.0 0.0 0.0 0.0 0.0
0.0 0.0 0.0 0.0 0.0 0.0 0.0 0.0
0.0 0.0 0.0 0.0 0.0 0.0 0.0 0.0
0.0 0.0 0.0 0.0 0.0 0.0 0.0 0.0
0.0 0.0 0.0 0.0 0.0 0.0 0.0 0.0
0.0 0.0 0.0 0.0 0.0 0.0 0.0 0.0
0.0 0.0 0.0 0.0 0.0 0.0 0.0 0.0
0.0 0.0 0.0 0.0 0.0 0.0 0.0 0.0
0.0 0.0 0.0 0.0 0.0 0.0 0.0 0.0
0.0 0.0 0.0 0.0 0.0 0.0 0.0 0.0
0.0 0.0 0.0 0.0 0.0 0.0 0.0 0.0
0.0 0.0 0.0 0.0 0.0 0.0 0.0 0.0
0.0 0.0 0.0 0.0 0.0 0.0 0.0 0.0
0.0 0.0 0.0 0.0 0.0 0.0 0.0 0.0
0.0 0.0 0.0 0.0 0.0 0.0 0.0 0.0
0.0 0.0 0.0 0.0 0.0 0.0 0.0 0.0
0.0 0.0 0.0 0.0 0.0 0.0 0.0 0.0
0.0 0.0 0.0 0.0 0.0 0.0 0.0 0.0
0.0 0.0 0.0 0.0 0.0 0.0 0.0 0.0
0.0 0.0 0.0 0.0 0.0 0.0 0.0 0.0
0.0 0.0 0.0 0.0 0.0 0.0 0.0 0.0
0.0 0.0 0.0 0.0 0.0 0.0 0.0 0.0
0.0 0.0 0.0 0.0 0.0 0.0 0.0 0.0
0.0 0.0 0.0 0.0 0.0 0.0 0.0 0.0
0.0 0.0 0.0 0.0 0.0 0.0 0.0 0.0
00000000: 8080 8080 8080 8080 8080 8080 8080 8080
00000010: 8080 8080 8080 8080 8080 8080 8080 8080
00000020: 8080 8080 8080 8080 8080 8080 8080 8080
00000030: 8080 8080 8080 8080 8080 8080 8080 8080
00000040: 8080 8080 8080 8080 8080 8080 8080 8080
00000050: 8080 8080 8080 8080 8080 8080 8080 8080
00000060: 8080 8080 8080 8080 8080 8080 8080 8080
00000070: 8080 8080 8080 8080 8080 8080 8080 8080
00000080: 8080 8080 8080 8080 8080 8080 8080 8080
00000090: 8080 8080 8080 8080 8080 8080 8080 8080
000000a0: 8080 8080 8080 8080 8080 8080 8080 8080
000000b0: 8080 8080 8080 8080 8080 8080 8080 8080
000000c0: 8080 8080 8080 8080 8080 8080 8080 8080
000000d0: 8080 8080 8080 8080 8080 8080 8080 8080
000000e0: 8080 8080 8080 8080 8080 8080 8080 8080
000000f0: 8080 8080 8080 8080 8080 8080 8080 8080

tfl.pseudo_qconst26 i1 [1, 3, 1, 40] scale=0.101960786 zero_point=-128
0.0 0.0 0.0 0.0 0.0 0.0 0.0 0.0
0.0 0.0 0.0 0.0 0.0 0.0 0.0 0.0
0.0 0.0 0.0 0.0 0.0 0.0 0.0 0.0
0.0 0.0 0.0 0.0 0.0 0.0 0.0 0.0
0.0 0.0 0.0 0.0 0.0 0.0 0.0 0.0
0.0 0.0 0.0 0.0 0.0 0.0 0.0 0.0
0.0 0.0 0.0 0.0 0.0 0.0 0.0 0.0
0.0 0.0 0.0 0.0 0.0 0.0 0.0 0.0
0.0 0.0 0.0 0.0 0.0 0.0 0.0 0.0
0.0 0.0 0.0 0.0 0.0 0.0 0.0 0.0
0.0 0.0 0.0 0.0 0.0 0.0 0.0 0.0
0.0 0.0 0.0 0.0 0.0 0.0 0.0 0.0
0.0 0.0 0.0 0.0 0.0 0.0 0.0 0.0
0.0 0.0 0.0 0.0 0.0 0.0 0.0 0.0
0.0 0.0 0.0 0.0 0.0 0.0 0.0 0.0
00000000: 8080 8080 8080 8080 8080 8080 8080 8080
00000010: 8080 8080 8080 8080 8080 8080 8080 8080
00000020: 8080 8080 8080 8080 8080 8080 8080 8080
00000030: 8080 8080 8080 8080 8080 8080 8080 8080
00000040: 8080 8080 8080 8080 8080 8080 8080 8080
00000050: 8080 8080 8080 8080 8080 8080 8080 8080
00000060: 8080 8080 8080 8080 8080 8080 8080 8080
00000070: 8080 8080 8080 8080

tfl.pseudo_qconst27 i1 [1, 4, 1, 32] scale=1.3591455 zero_point=-128
0.0 0.0 0.0 0.0 0.0 0.0 0.0 0.0
0.0 0.0 0.0 0.0 0.0 0.0 0.0 0.0
0.0 0.0 0.0 0.0 0.0 0.0 0.0 0.0
0.0 0.0 0.0 0.0 0.0 0.0 0.0 0.0
0.0 0.0 0.0 0.0 0.0 0.0 0.0 0.0
0.0 0.0 0.0 0.0 0.0 0.0 0.0 0.0
0.0 0.0 0.0 0.0 0.0 0.0 0.0 0.0
0.0 0.0 0.0 0.0 0.0 0.0 0.0 0.0
0.0 0.0 0.0 0.0 0.0 0.0 0.0 0.0
0.0 0.0 0.0 0.0 0.0 0.0 0.0 0.0
0.0 0.0 0.0 0.0 0.0 0.0 0.0 0.0
0.0 0.0 0.0 0.0 0.0 0.0 0.0 0.0
0.0 0.0 0.0 0.0 0.0 0.0 0.0 0.0
0.0 0.0 0.0 0.0 0.0 0.0 0.0 0.0
0.0 0.0 0.0 0.0 0.0 0.0 0.0 0.0
0.0 0.0 0.0 0.0 0.0 0.0 0.0 0.0
00000000: 8080 8080 8080 8080 8080 8080 8080 8080
00000010: 8080 8080 8080 8080 8080 8080 8080 8080
00000020: 8080 8080 8080 8080 8080 8080 8080 8080
00000030: 8080 8080 8080 8080 8080 8080 8080 8080
00000040: 8080 8080 8080 8080 8080 8080 8080 8080
00000050: 8080 8080 8080 8080 8080 8080 8080 8080
00000060: 8080 8080 8080 8080 8080 8080 8080 8080
00000070: 8080 8080 8080 8080 8080 8080 8080 8080

tfl.pseudo_qconst28 i1 [1, 10, 1, 64] scale=0.038251925 zero_point=-128
0.0 0.0 0.0 0.0 0.0 0.0 0.0 0.0
0.0 0.0 0.0 0.0 0.0 0.0 0.0 0.0
0.0 0.0 0.0 0.0 0.0 0.0 0.0 0.0
0.0 0.0 0.0 0.0 0.0 0.0 0.0 0.0
0.0 0.0 0.0 0.0 0.0 0.0 0.0 0.0
0.0 0.0 0.0 0.0 0.0 0.0 0.0 0.0
0.0 0.0 0.0 0.0 0.0 0.0 0.0 0.0
0.0 0.0 0.0 0.0 0.0 0.0 0.0 0.0
0.0 0.0 0.0 0.0 0.0 0.0 0.0 0.0
0.0 0.0 0.0 0.0 0.0 0.0 0.0 0.0
0.0 0.0 0.0 0.0 0.0 0.0 0.0 0.0
0.0 0.0 0.0 0.0 0.0 0.0 0.0 0.0
0.0 0.0 0.0 0.0 0.0 0.0 0.0 0.0
0.0 0.0 0.0 0.0 0.0 0.0 0.0 0.0
0.0 0.0 0.0 0.0 0.0 0.0 0.0 0.0
0.0 0.0 0.0 0.0 0.0 0.0 0.0 0.0
0.0 0.0 0.0 0.0 0.0 0.0 0.0 0.0
0.0 0.0 0.0 0.0 0.0 0.0 0.0 0.0
0.0 0.0 0.0 0.0 0.0 0.0 0.0 0.0
0.0 0.0 0.0 0.0 0.0 0.0 0.0 0.0
0.0 0.0 0.0 0.0 0.0 0.0 0.0 0.0
0.0 0.0 0.0 0.0 0.0 0.0 0.0 0.0
0.0 0.0 0.0 0.0 0.0 0.0 0.0 0.0
0.0 0.0 0.0 0.0 0.0 0.0 0.0 0.0
0.0 0.0 0.0 0.0 0.0 0.0 0.0 0.0
0.0 0.0 0.0 0.0 0.0 0.0 0.0 0.0
0.0 0.0 0.0 0.0 0.0 0.0 0.0 0.0
0.0 0.0 0.0 0.0 0.0 0.0 0.0 0.0
0.0 0.0 0.0 0.0 0.0 0.0 0.0 0.0
0.0 0.0 0.0 0.0 0.0 0.0 0.0 0.0
0.0 0.0 0.0 0.0 0.0 0.0 0.0 0.0
0.0 0.0 0.0 0.0 0.0 0.0 0.0 0.0
00000000: 8080 8080 8080 8080 8080 8080 8080 8080
00000010: 8080 8080 8080 8080 8080 8080 8080 8080
00000020: 8080 8080 8080 8080 8080 8080 8080 8080
00000030: 8080 8080 8080 8080 8080 8080 8080 8080
00000040: 8080 8080 8080 8080 8080 8080 8080 8080
00000050: 8080 8080 8080 8080 8080 8080 8080 8080
00000060: 8080 8080 8080 8080 8080 8080 8080 8080
00000070: 8080 8080 8080 8080 8080 8080 8080 8080
00000080: 8080 8080 8080 8080 8080 8080 8080 8080
00000090: 8080 8080 8080 8080 8080 8080 8080 8080
000000a0: 8080 8080 8080 8080 8080 8080 8080 8080
000000b0: 8080 8080 8080 8080 8080 8080 8080 8080
000000c0: 8080 8080 8080 8080 8080 8080 8080 8080
000000d0: 8080 8080 8080 8080 8080 8080 8080 8080
000000e0: 8080 8080 8080 8080 8080 8080 8080 8080
000000f0: 8080 8080 8080 8080 8080 8080 8080 8080

tfl.pseudo_qconst29 i1 [1, 14, 1, 64] scale=0.057388835 zero_point=-128
0.0 0.0 0.0 0.0 0.0 0.0 0.0 0.0
0.0 0.0 0.0 0.0 0.0 0.0 0.0 0.0
0.0 0.0 0.0 0.0 0.0 0.0 0.0 0.0
0.0 0.0 0.0 0.0 0.0 0.0 0.0 0.0
0.0 0.0 0.0 0.0 0.0 0.0 0.0 0.0
0.0 0.0 0.0 0.0 0.0 0.0 0.0 0.0
0.0 0.0 0.0 0.0 0.0 0.0 0.0 0.0
0.0 0.0 0.0 0.0 0.0 0.0 0.0 0.0
0.0 0.0 0.0 0.0 0.0 0.0 0.0 0.0
0.0 0.0 0.0 0.0 0.0 0.0 0.0 0.0
0.0 0.0 0.0 0.0 0.0 0.0 0.0 0.0
0.0 0.0 0.0 0.0 0.0 0.0 0.0 0.0
0.0 0.0 0.0 0.0 0.0 0.0 0.0 0.0
0.0 0.0 0.0 0.0 0.0 0.0 0.0 0.0
0.0 0.0 0.0 0.0 0.0 0.0 0.0 0.0
0.0 0.0 0.0 0.0 0.0 0.0 0.0 0.0
0.0 0.0 0.0 0.0 0.0 0.0 0.0 0.0
0.0 0.0 0.0 0.0 0.0 0.0 0.0 0.0
0.0 0.0 0.0 0.0 0.0 0.0 0.0 0.0
0.0 0.0 0.0 0.0 0.0 0.0 0.0 0.0
0.0 0.0 0.0 0.0 0.0 0.0 0.0 0.0
0.0 0.0 0.0 0.0 0.0 0.0 0.0 0.0
0.0 0.0 0.0 0.0 0.0 0.0 0.0 0.0
0.0 0.0 0.0 0.0 0.0 0.0 0.0 0.0
0.0 0.0 0.0 0.0 0.0 0.0 0.0 0.0
0.0 0.0 0.0 0.0 0.0 0.0 0.0 0.0
0.0 0.0 0.0 0.0 0.0 0.0 0.0 0.0
0.0 0.0 0.0 0.0 0.0 0.0 0.0 0.0
0.0 0.0 0.0 0.0 0.0 0.0 0.0 0.0
0.0 0.0 0.0 0.0 0.0 0.0 0.0 0.0
0.0 0.0 0.0 0.0 0.0 0.0 0.0 0.0
0.0 0.0 0.0 0.0 0.0 0.0 0.0 0.0
00000000: 8080 8080 8080 8080 8080 8080 8080 8080
00000010: 8080 8080 8080 8080 8080 8080 8080 8080
00000020: 8080 8080 8080 8080 8080 8080 8080 8080
00000030: 8080 8080 8080 8080 8080 8080 8080 8080
00000040: 8080 8080 8080 8080 8080 8080 8080 8080
00000050: 8080 8080 8080 8080 8080 8080 8080 8080
00000060: 8080 8080 8080 8080 8080 8080 8080 8080
00000070: 8080 8080 8080 8080 8080 8080 8080 8080
00000080: 8080 8080 8080 8080 8080 8080 8080 8080
00000090: 8080 8080 8080 8080 8080 8080 8080 8080
000000a0: 8080 8080 8080 8080 8080 8080 8080 8080
000000b0: 8080 8080 8080 8080 8080 8080 8080 8080
000000c0: 8080 8080 8080 8080 8080 8080 8080 8080
000000d0: 8080 8080 8080 8080 8080 8080 8080 8080
000000e0: 8080 8080 8080 8080 8080 8080 8080 8080
000000f0: 8080 8080 8080 8080 8080 8080 8080 8080
