mila.tflite (tflite, 63568 bytes, 18 tensors)

tfl.pseudo_qconst1 i1 [1, 2368] scale=0.0136577245 zero_point=0
0	0x10	0.21852359
1	0xed	-0.25949678
2	0xee	-0.24583904
3	0x01	0.0136577245
4	0xfa	-0.08194634
5	0xf6	-0.13657725
6	0xe3	-0.396074
7	0xf7	-0.12291952
8	0x1e	0.40973175
9	0xd4	-0.60093987
10	0x04	0.054630898
11	0xea	-0.30046993
12	0xeb	-0.28681222
13	0x22	0.46436262
14	0xeb	-0.28681222
15	0xfb	-0.068288624
16	0xe7	-0.34144312
17	0xf1	-0.20486587
18	0x22	0.46436262
19	0xdd	-0.47802037
20	0xfd	-0.04097317
21	0xfa	-0.08194634
22	0xff	-0.0136577245
23	0xf1	-0.20486587
24	0xdd	-0.47802037
25	0xe9	-0.31412765
26	0xe0	-0.43704718
27	0xf0	-0.21852359
28	0xc7	-0.7784903
29	0xfa	-0.08194634
30	0xed	-0.25949678
31	0xef	-0.23218131
32	0xfe	-0.027315449
33	0x06	0.08194634
34	0xf4	-0.16389269
35	0xd3	-0.6145976
36	0xf9	-0.09560407
37	0xe4	-0.38241628
38	0xe7	-0.34144312
39	0xda	-0.51899356
40	0xec	-0.2731545
41	0xe8	-0.32778537
42	0xf4	-0.16389269
43	0xd7	-0.5599667
44	0xe8	-0.32778537
45	0xf1	-0.20486587
46	0xf3	-0.17755042
47	0x0f	0.20486587
48	0xe9	-0.31412765
49	0xf3	-0.17755042
50	0xeb	-0.28681222
51	0xe9	-0.31412765
52	0x05	0.068288624
53	0xec	-0.2731545
54	0x0c	0.16389269
55	0xf2	-0.19120814
56	0xe0	-0.43704718
57	0x38	0.76483256
58	0xf2	-0.19120814
59	0xec	-0.2731545
60	0xe8	-0.32778537
61	0xe9	-0.31412765
62	0xe8	-0.32778537
63	0x06	0.08194634
64	0x0d	0.17755042
65	0x0b	0.15023497
66	0xf2	-0.19120814
67	0x09	0.12291952
68	0x06	0.08194634
69	0xed	-0.25949678
70	0xf7	-0.12291952
71	0xef	-0.23218131
72	0x31	0.6692285
73	0xe9	-0.31412765
74	0xfa	-0.08194634
75	0xfb	-0.068288624
76	0xf3	-0.17755042
77	0x27	0.53265125
78	0x09	0.12291952
79	0x08	0.109261796
80	0xf3	-0.17755042
81	0xee	-0.24583904
82	0x1b	0.36875856
83	0xf1	-0.20486587
84	0xfd	-0.04097317
85	0xf4	-0.16389269
86	0x00	0.0
87	0x02	0.027315449
88	0xf2	-0.19120814
89	0xf6	-0.13657725
90	0xed	-0.25949678
91	0xf2	-0.19120814
92	0xd7	-0.5599667
93	0x08	0.109261796
94	0x00	0.0
95	0xf9	-0.09560407
96	0x03	0.04097317
97	0x07	0.09560407
98	0xf6	-0.13657725
99	0xe6	-0.35510084
100	0xfe	-0.027315449
101	0xed	-0.25949678
102	0xec	-0.2731545
103	0xe4	-0.38241628
104	0xe9	-0.31412765
105	0xf4	-0.16389269
106	0xfe	-0.027315449
107	0xe2	-0.40973175
108	0xf9	-0.09560407
109	0xfa	-0.08194634
110	0xf4	-0.16389269
111	0x0e	0.19120814
112	0xf3	-0.17755042
113	0xf9	-0.09560407
114	0xf7	-0.12291952
115	0xf4	-0.16389269
116	0x05	0.068288624
117	0xf7	-0.12291952
118	0x09	0.12291952
119	0x15	0.28681222
120	0xef	-0.23218131
121	0x2e	0.6282553
122	0xfe	-0.027315449
123	0xf7	-0.12291952
124	0xe7	-0.34144312
125	0xea	-0.30046993
126	0xf9	-0.09560407
127	0x02	0.027315449
128	0x0b	0.15023497
129	0x20	0.43704718
130	0xfa	-0.08194634
131	0x0a	0.13657725
132	0xfd	-0.04097317
133	0xf8	-0.109261796
134	0x03	0.04097317
135	0xec	-0.2731545
136	0x2b	0.5872822
137	0xf4	-0.16389269
138	0xfe	-0.027315449
139	0x01	0.0136577245
140	0xf4	-0.16389269
141	0x1c	0.38241628
142	0x0d	0.17755042
143	0xf5	-0.15023497
144	0xf8	-0.109261796
145	0xf0	-0.21852359
146	0x0d	0.17755042
147	0xfa	-0.08194634
148	0x02	0.027315449
149	0xf7	-0.12291952
150	0xfe	-0.027315449
151	0x03	0.04097317
152	0xff	-0.0136577245
153	0xfe	-0.027315449
154	0xf2	-0.19120814
155	0xec	-0.2731545
156	0xe7	-0.34144312
157	0xfd	-0.04097317
158	0xf8	-0.109261796
159	0xf6	-0.13657725
160	0x03	0.04097317
161	0x0e	0.19120814
162	0xfd	-0.04097317
163	0xf2	-0.19120814
164	0xea	-0.30046993
165	0xf8	-0.109261796
166	0xf6	-0.13657725
167	0xed	-0.25949678
168	0xec	-0.2731545
169	0xf8	-0.109261796
170	0x09	0.12291952
171	0xea	-0.30046993
172	0xfb	-0.068288624
173	0x06	0.08194634
174	0xf6	-0.13657725
175	0x0b	0.15023497
176	0xf6	-0.13657725
177	0x02	0.027315449
178	0xfb	-0.068288624
179	0xf9	-0.09560407
180	0x04	0.054630898
181	0xf6	-0.13657725
182	0x07	0.09560407
183	0x0a	0.13657725
184	0xe4	-0.38241628
185	0x1e	0.40973175
186	0xfa	-0.08194634
187	0x06	0.08194634
188	0xf7	-0.12291952
189	0xf1	-0.20486587
190	0xf7	-0.12291952
191	0x02	0.027315449
192	0x08	0.109261796
193	0x1d	0.396074
194	0xf1	-0.20486587
195	0x06	0.08194634
196	0xff	-0.0136577245
197	0xfa	-0.08194634
198	0x06	0.08194634
199	0xf4	-0.16389269
200	0x24	0.4916781
201	0xea	-0.30046993
202	0xfb	-0.068288624
203	0xe6	-0.35510084
204	0xf3	-0.17755042
205	0x18	0.32778537
206	0x07	0.09560407
207	0xf6	-0.13657725
208	0xf2	-0.19120814
209	0xec	-0.2731545
210	0x09	0.12291952
211	0xfc	-0.054630898
212	0xfd	-0.04097317
213	0xf4	-0.16389269
214	0xfc	-0.054630898
215	0x04	0.054630898
216	0x0f	0.20486587
217	0x0c	0.16389269
218	0xf1	-0.20486587
219	0xf3	-0.17755042
220	0xeb	-0.28681222
221	0xf8	-0.109261796
222	0xf7	-0.12291952
223	0xf6	-0.13657725
224	0x08	0.109261796
225	0x0e	0.19120814
226	0x02	0.027315449
227	0xf6	-0.13657725
228	0xeb	-0.28681222
229	0x06	0.08194634
230	0xfe	-0.027315449
231	0xf4	-0.16389269
232	0xfa	-0.08194634
233	0xfa	-0.08194634
234	0x03	0.04097317
235	0xe6	-0.35510084
236	0xf3	-0.17755042
237	0x05	0.068288624
238	0xf2	-0.19120814
239	0x08	0.109261796
240	0xfc	-0.054630898
241	0x04	0.054630898
242	0x01	0.0136577245
243	0xf6	-0.13657725
244	0x05	0.068288624
245	0x05	0.068288624
246	0x07	0.09560407
247	0x0f	0.20486587
248	0xda	-0.51899356
249	0x19	0.34144312
250	0xf7	-0.12291952
251	0x08	0.109261796
252	0x01	0.0136577245
253	0xfe	-0.027315449
254	0xed	-0.25949678
255	0x0a	0.13657725

tfl.pseudo_qconst3 i1 [64, 1, 1, 64]
0	0xf7	-9
1	0x04	4
2	0x13	19
3	0x37	55
4	0x30	48
5	0x36	54
6	0xa0	-96
7	0x7f	127
8	0x02	2
9	0x2c	44
10	0xca	-54
11	0xe7	-25
12	0xea	-22
13	0x1e	30
14	0xd5	-43
15	0x54	84
16	0x20	32
17	0x1e	30
18	0xda	-38
19	0xfb	-5
20	0xc1	-63
21	0x73	115
22	0x1d	29
23	0xd6	-42
24	0x19	25
25	0x1d	29
26	0xfa	-6
27	0x06	6
28	0x09	9
29	0xfb	-5
30	0xa8	-88
31	0xe9	-23
32	0x20	32
33	0x2f	47
34	0xe1	-31
35	0xf4	-12
36	0x00	0
37	0xf1	-15
38	0x1d	29
39	0xef	-17
40	0x16	22
41	0x01	1
42	0x70	112
43	0x3b	59
44	0xf6	-10
45	0x1f	31
46	0xd1	-47
47	0xed	-19
48	0xee	-18
49	0x30	48
50	0xd9	-39
51	0x5b	91
52	0x3e	62
53	0xff	-1
54	0xe8	-24
55	0xfc	-4
56	0x04	4
57	0xfc	-4
58	0x02	2
59	0xc8	-56
60	0xed	-19
61	0xf4	-12
62	0xb0	-80
63	0xc3	-61
64	0xeb	-21
65	0xe5	-27
66	0xbd	-67
67	0xb6	-74
68	0xa6	-90
69	0xb6	-74
70	0xba	-70
71	0x00	0
72	0x77	119
73	0xfb	-5
74	0x01	1
75	0x61	97
76	0x11	17
77	0xf2	-14
78	0x00	0
79	0xee	-18
80	0x19	25
81	0x0f	15
82	0xcf	-49
83	0x98	-104
84	0x27	39
85	0x06	6
86	0x7f	127
87	0x31	49
88	0xfe	-2
89	0x58	88
90	0xc6	-58
91	0x1e	30
92	0xce	-50
93	0xf5	-11
94	0x8e	-114
95	0xc6	-58
96	0x12	18
97	0x0c	12
98	0xec	-20
99	0xbb	-69
100	0x0d	13
101	0x41	65
102	0xac	-84
103	0x16	22
104	0x0c	12
105	0xe4	-28
106	0xda	-38
107	0xb6	-74
108	0x26	38
109	0x8a	-118
110	0x01	1
111	0x1f	31
112	0xe9	-23
113	0xe4	-28
114	0x4f	79
115	0x44	68
116	0x04	4
117	0xf5	-11
118	0xed	-19
119	0x25	37
120	0xf5	-11
121	0xf3	-13
122	0x3b	59
123	0xd2	-46
124	0x46	70
125	0xc3	-61
126	0x26	38
127	0x1a	26
128	0xed	-19
129	0x9b	-101
130	0x3c	60
131	0xf6	-10
132	0x06	6
133	0x81	-127
134	0x18	24
135	0x05	5
136	0xf6	-10
137	0x09	9
138	0xd8	-40
139	0x09	9
140	0x09	9
141	0x1b	27
142	0xde	-34
143	0xce	-50
144	0xe0	-32
145	0x03	3
146	0x03	3
147	0xe3	-29
148	0xfd	-3
149	0x22	34
150	0x25	37
151	0x17	23
152	0xc4	-60
153	0x62	98
154	0x02	2
155	0xe2	-30
156	0xf9	-7
157	0xd3	-45
158	0xde	-34
159	0x6b	107
160	0xb4	-76
161	0xd3	-45
162	0xda	-38
163	0x39	57
164	0x1e	30
165	0x13	19
166	0x07	7
167	0x45	69
168	0xf4	-12
169	0xc9	-55
170	0x29	41
171	0xe6	-26
172	0x27	39
173	0xc5	-59
174	0xf9	-7
175	0x2b	43
176	0xf5	-11
177	0xe2	-30
178	0x36	54
179	0x08	8
180	0x12	18
181	0x83	-125
182	0xd9	-39
183	0x01	1
184	0xb5	-75
185	0xd6	-42
186	0xdb	-37
187	0xc0	-64
188	0xe2	-30
189	0x1b	27
190	0x2e	46
191	0xbd	-67
192	0x25	37
193	0x11	17
194	0x1c	28
195	0x1f	31
196	0xcb	-53
197	0xdf	-33
198	0xdd	-35
199	0x17	23
200	0xea	-22
201	0x3d	61
202	0xdd	-35
203	0xb8	-72
204	0x22	34
205	0xde	-34
206	0xe3	-29
207	0x2b	43
208	0x13	19
209	0x33	51
210	0x35	53
211	0xfe	-2
212	0x9b	-101
213	0xfe	-2
214	0x2d	45
215	0x12	18
216	0x16	22
217	0x17	23
218	0xfa	-6
219	0x1d	29
220	0xf2	-14
221	0xc4	-60
222	0x12	18
223	0x0b	11
224	0xfb	-5
225	0x1e	30
226	0x16	22
227	0x08	8
228	0x2a	42
229	0xe1	-31
230	0x04	4
231	0x03	3
232	0x8f	-113
233	0xf9	-7
234	0x38	56
235	0xf2	-14
236	0x01	1
237	0x33	51
238	0xd6	-42
239	0x17	23
240	0x81	-127
241	0x30	48
242	0x14	20
243	0xe9	-23
244	0x1a	26
245	0x14	20
246	0xec	-20
247	0x03	3
248	0xc9	-55
249	0xfa	-6
250	0x10	16
251	0xf4	-12
252	0x1a	26
253	0xf9	-7
254	0x33	51
255	0x05	5

tfl.pseudo_qconst5 i1 [1, 23, 1, 64]
0	0x3f	63
1	0xc9	-55
2	0x81	-127
3	0x81	-127
4	0x7f	127
5	0x81	-127
6	0xe7	-25
7	0xea	-22
8	0xfd	-3
9	0x48	72
10	0x7f	127
11	0x4c	76
12	0x70	112
13	0x7f	127
14	0xcb	-53
15	0x04	4
16	0x09	9
17	0xc7	-57
18	0x09	9
19	0x81	-127
20	0xf4	-12
21	0xba	-70
22	0x81	-127
23	0xbf	-65
24	0xa8	-88
25	0x7f	127
26	0x28	40
27	0x7f	127
28	0x1b	27
29	0x87	-121
30	0xba	-70
31	0x81	-127
32	0x4b	75
33	0xfa	-6
34	0xe0	-32
35	0x7d	125
36	0x81	-127
37	0x7f	127
38	0xfa	-6
39	0x81	-127
40	0xd9	-39
41	0xb3	-77
42	0xa2	-94
43	0xc0	-64
44	0x81	-127
45	0x74	116
46	0x38	56
47	0x81	-127
48	0x7f	127
49	0x18	24
50	0x43	67
51	0x53	83
52	0xee	-18
53	0xa0	-96
54	0x70	112
55	0x2c	44
56	0x52	82
57	0x7f	127
58	0x4f	79
59	0x2b	43
60	0x81	-127
61	0x89	-119
62	0x39	57
63	0xab	-85
64	0x1e	30
65	0xb3	-77
66	0x8a	-118
67	0x94	-108
68	0x6a	106
69	0xa9	-87
70	0xde	-34
71	0xf2	-14
72	0x2e	46
73	0x4b	75
74	0x6b	107
75	0x70	112
76	0x7f	127
77	0x4f	79
78	0x00	0
79	0xf6	-10
80	0x02	2
81	0xaa	-86
82	0xe7	-25
83	0x82	-126
84	0xdf	-33
85	0xea	-22
86	0x92	-110
87	0xcc	-52
88	0x20	32
89	0x54	84
90	0x3a	58
91	0x6c	108
92	0x46	70
93	0xa4	-92
94	0xb4	-76
95	0x9e	-98
96	0x6a	106
97	0x00	0
98	0xb2	-78
99	0x47	71
100	0x99	-103
101	0x5e	94
102	0xf4	-12
103	0x93	-109
104	0xef	-17
105	0xea	-22
106	0xb9	-71
107	0xc9	-55
108	0x86	-122
109	0x7f	127
110	0x54	84
111	0x85	-123
112	0x42	66
113	0x36	54
114	0x2a	42
115	0x5c	92
116	0xcb	-53
117	0xc1	-63
118	0x6c	108
119	0x2e	46
120	0x6d	109
121	0x75	117
122	0x43	67
123	0x31	49
124	0x9c	-100
125	0x81	-127
126	0x67	103
127	0xcd	-51
128	0xe9	-23
129	0x95	-107
130	0x9f	-97
131	0xae	-82
132	0x5b	91
133	0xad	-83
134	0xf5	-11
135	0xfc	-4
136	0x50	80
137	0x40	64
138	0x67	103
139	0x7c	124
140	0x66	102
141	0x44	68
142	0xfe	-2
143	0xef	-17
144	0x06	6
145	0xdb	-37
146	0xe3	-29
147	0x95	-107
148	0xc1	-63
149	0x0f	15
150	0xa0	-96
151	0xe7	-25
152	0xeb	-21
153	0x30	48
154	0x36	54
155	0x57	87
156	0x23	35
157	0x9e	-98
158	0xbf	-65
159	0xb2	-78
160	0x6b	107
161	0x05	5
162	0xa4	-92
163	0x2c	44
164	0xb9	-71
165	0x45	69
166	0x06	6
167	0xc4	-60
168	0xe9	-23
169	0x0a	10
170	0xce	-50
171	0xcf	-49
172	0x92	-110
173	0x73	115
174	0x5c	92
175	0x9a	-102
176	0xe7	-25
177	0x4b	75
178	0x28	40
179	0x7f	127
180	0xe9	-23
181	0xd7	-41
182	0x44	68
183	0x27	39
184	0x71	113
185	0x7a	122
186	0x2b	43
187	0x46	70
188	0xd6	-42
189	0xa6	-90
190	0x7f	127
191	0x14	20
192	0xd8	-40
193	0x98	-104
194	0xb8	-72
195	0xad	-83
196	0x2c	44
197	0xd3	-45
198	0x23	35
199	0xfc	-4
200	0x77	119
201	0x27	39
202	0x4e	78
203	0x7f	127
204	0x09	9
205	0x65	101
206	0xfe	-2
207	0xe0	-32
208	0x06	6
209	0x11	17
210	0xba	-70
211	0xaa	-86
212	0xdd	-35
213	0x37	55
214	0xbb	-69
215	0xf7	-9
216	0xa1	-95
217	0x21	33
218	0x31	49
219	0x39	57
220	0xc9	-55
221	0x81	-127
222	0xb5	-75
223	0xd8	-40
224	0x66	102
225	0x08	8
226	0xb4	-76
227	0x27	39
228	0xe2	-30
229	0x1d	29
230	0xe5	-27
231	0xdf	-33
232	0xdb	-37
233	0x0a	10
234	0xcc	-52
235	0xdb	-37
236	0xb3	-77
237	0x55	85
238	0x39	57
239	0xc6	-58
240	0xa5	-91
241	0x78	120
242	0x16	22
243	0x62	98
244	0x05	5
245	0xed	-19
246	0x45	69
247	0x21	33
248	0x70	112
249	0x70	112
250	0x03	3
251	0x41	65
252	0x39	57
253	0x90	-112
254	0x67	103
255	0x2e	46

tfl.pseudo_qconst7 i1 [64, 1, 1, 64]
0	0x6e	110
1	0x90	-112
2	0x15	21
3	0xdf	-33
4	0x3d	61
5	0xab	-85
6	0xca	-54
7	0x28	40
8	0x34	52
9	0x0e	14
10	0x34	52
11	0x57	87
12	0x18	24
13	0x1d	29
14	0x27	39
15	0x04	4
16	0x14	20
17	0xb4	-76
18	0x32	50
19	0xe5	-27
20	0xe5	-27
21	0x51	81
22	0x22	34
23	0x8c	-116
24	0x64	100
25	0xf3	-13
26	0xe4	-28
27	0x31	49
28	0x12	18
29	0xed	-19
30	0x02	2
31	0xaf	-81
32	0xd6	-42
33	0x4f	79
34	0x36	54
35	0x2f	47
36	0xf1	-15
37	0xaf	-81
38	0x02	2
39	0xfd	-3
40	0xf4	-12
41	0x1e	30
42	0x0a	10
43	0xd8	-40
44	0xea	-22
45	0x6d	109
46	0x43	67
47	0x3a	58
48	0xc4	-60
49	0xe4	-28
50	0x81	-127
51	0xe9	-23
52	0xdf	-33
53	0xed	-19
54	0x0b	11
55	0xec	-20
56	0xe7	-25
57	0x00	0
58	0xfc	-4
59	0xa5	-91
60	0xa5	-91
61	0x05	5
62	0xbf	-65
63	0x2d	45
64	0x58	88
65	0xee	-18
66	0x14	20
67	0xc7	-57
68	0xda	-38
69	0xe7	-25
70	0xc7	-57
71	0x9f	-97
72	0x0b	11
73	0x27	39
74	0x18	24
75	0xe8	-24
76	0x0d	13
77	0x23	35
78	0x4d	77
79	0xf9	-7
80	0x3a	58
81	0x15	21
82	0xeb	-21
83	0x9f	-97
84	0x5b	91
85	0x23	35
86	0xef	-17
87	0xe5	-27
88	0x31	49
89	0x06	6
90	0xe0	-32
91	0xc1	-63
92	0x28	40
93	0x27	39
94	0x1d	29
95	0xc7	-57
96	0xe9	-23
97	0xdd	-35
98	0xd4	-44
99	0x3e	62
100	0x61	97
101	0x0f	15
102	0x21	33
103	0xea	-22
104	0x1f	31
105	0xda	-38
106	0xc2	-62
107	0xe8	-24
108	0xdf	-33
109	0x7f	127
110	0x2e	46
111	0xe5	-27
112	0xd7	-41
113	0x14	20
114	0xd7	-41
115	0x04	4
116	0xf0	-16
117	0x25	37
118	0x1a	26
119	0x04	4
120	0x54	84
121	0x0c	12
122	0x52	82
123	0xb5	-75
124	0x05	5
125	0x44	68
126	0xaf	-81
127	0x08	8
128	0x06	6
129	0x97	-105
130	0xeb	-21
131	0xa0	-96
132	0x6c	108
133	0xc6	-58
134	0x05	5
135	0x44	68
136	0x94	-108
137	0xf3	-13
138	0x47	71
139	0xd9	-39
140	0x81	-127
141	0x42	66
142	0x9b	-101
143	0x05	5
144	0xf9	-7
145	0x31	49
146	0x01	1
147	0x02	2
148	0x52	82
149	0xeb	-21
150	0x00	0
151	0xe2	-30
152	0x07	7
153	0x1e	30
154	0x84	-124
155	0x83	-125
156	0xfb	-5
157	0xed	-19
158	0xc1	-63
159	0x29	41
160	0xdc	-36
161	0x25	37
162	0x67	103
163	0xb7	-73
164	0x12	18
165	0xc3	-61
166	0xd6	-42
167	0x59	89
168	0x36	54
169	0xc4	-60
170	0xfc	-4
171	0x77	119
172	0x4f	79
173	0xc2	-62
174	0xf2	-14
175	0xd0	-48
176	0xf1	-15
177	0x0c	12
178	0x4d	77
179	0x2a	42
180	0xea	-22
181	0x46	70
182	0x0f	15
183	0xfb	-5
184	0xdc	-36
185	0xf5	-11
186	0x96	-106
187	0xeb	-21
188	0xfa	-6
189	0x19	25
190	0xec	-20
191	0xe5	-27
192	0x41	65
193	0xb8	-72
194	0xd6	-42
195	0xd9	-39
196	0x21	33
197	0xf1	-15
198	0x20	32
199	0x23	35
200	0x1b	27
201	0x52	82
202	0xd2	-46
203	0xc7	-57
204	0x40	64
205	0x2d	45
206	0xea	-22
207	0xb1	-79
208	0xe6	-26
209	0x34	52
210	0xf3	-13
211	0x21	33
212	0x3a	58
213	0xd8	-40
214	0xe2	-30
215	0xd1	-47
216	0xf7	-9
217	0xc4	-60
218	0xbe	-66
219	0xec	-20
220	0xd3	-45
221	0x21	33
222	0xc1	-63
223	0x0b	11
224	0xe8	-24
225	0x62	98
226	0x2d	45
227	0x29	41
228	0xf6	-10
229	0x84	-124
230	0x07	7
231	0x28	40
232	0x69	105
233	0x20	32
234	0xc7	-57
235	0x2e	46
236	0xd8	-40
237	0xd2	-46
238	0xa6	-90
239	0xb8	-72
240	0x4a	74
241	0x29	41
242	0x0b	11
243	0xdc	-36
244	0xcc	-52
245	0xdc	-36
246	0x49	73
247	0x3f	63
248	0x10	16
249	0xe3	-29
250	0x32	50
251	0xb5	-75
252	0x7c	124
253	0x7f	127
254	0x3e	62
255	0xff	-1

tfl.pseudo_qconst9 i1 [1, 15, 1, 32]
0	0x81	-127
1	0x2f	47
2	0xe7	-25
3	0x7f	127
4	0x5e	94
5	0x81	-127
6	0x93	-109
7	0x7f	127
8	0xfd	-3
9	0x81	-127
10	0xca	-54
11	0x7f	127
12	0x7f	127
13	0x81	-127
14	0x81	-127
15	0xeb	-21
16	0x7f	127
17	0x7f	127
18	0xee	-18
19	0xc0	-64
20	0xa5	-91
21	0x7f	127
22	0x7f	127
23	0x00	0
24	0xde	-34
25	0xfa	-6
26	0x6c	108
27	0x68	104
28	0x81	-127
29	0x7f	127
30	0x7f	127
31	0xd5	-43
32	0xa1	-95
33	0x52	82
34	0xde	-34
35	0x72	114
36	0x70	112
37	0x8c	-116
38	0x9a	-102
39	0x6f	111
40	0xe1	-31
41	0xaf	-81
42	0xe0	-32
43	0x54	84
44	0x71	113
45	0x9b	-101
46	0x97	-105
47	0x0f	15
48	0x6a	106
49	0x65	101
50	0x25	37
51	0xdd	-35
52	0x8a	-118
53	0x79	121
54	0x72	114
55	0xc2	-62
56	0xf5	-11
57	0xe7	-25
58	0x5b	91
59	0x6e	110
60	0xaa	-86
61	0x53	83
62	0x63	99
63	0xc6	-58
64	0xe3	-29
65	0x5f	95
66	0xc9	-55
67	0x50	80
68	0x77	119
69	0x98	-104
70	0x9a	-102
71	0x5f	95
72	0xd3	-45
73	0x00	0
74	0xf7	-9
75	0x65	101
76	0x4f	79
77	0x9e	-98
78	0xbc	-68
79	0xdf	-33
80	0x4c	76
81	0x5e	94
82	0x12	18
83	0xd9	-39
84	0x81	-127
85	0x74	116
86	0x6f	111
87	0xf0	-16
88	0x36	54
89	0xfa	-6
90	0x39	57
91	0x6c	108
92	0xd3	-45
93	0x51	81
94	0x38	56
95	0xbf	-65
96	0xe7	-25
97	0xfe	-2
98	0xbc	-68
99	0x35	53
100	0x61	97
101	0xb9	-71
102	0xe8	-24
103	0x51	81
104	0xc0	-64
105	0x4d	77
106	0x07	7
107	0x27	39
108	0xff	-1
109	0xb9	-71
110	0xbb	-69
111	0xd1	-47
112	0x54	84
113	0x4b	75
114	0xe2	-30
115	0xdd	-35
116	0x91	-111
117	0x5a	90
118	0x40	64
119	0x4d	77
120	0x51	81
121	0x1c	28
122	0x4f	79
123	0x71	113
124	0x14	20
125	0x36	54
126	0x2f	47
127	0x81	-127
128	0x03	3
129	0x87	-121
130	0xa0	-96
131	0x6b	107
132	0x5b	91
133	0xe0	-32
134	0x2c	44
135	0x3c	60
136	0xd1	-47
137	0x6e	110
138	0x0e	14
139	0x08	8
140	0xf0	-16
141	0xc6	-58
142	0xb7	-73
143	0xe4	-28
144	0x4a	74
145	0x13	19
146	0x05	5
147	0x1e	30
148	0xd2	-46
149	0x48	72
150	0x47	71
151	0x62	98
152	0x61	97
153	0x16	22
154	0x76	118
155	0xe5	-27
156	0xfb	-5
157	0x49	73
158	0x24	36
159	0x9a	-102
160	0x44	68
161	0xcd	-51
162	0xbf	-65
163	0x65	101
164	0x17	23
165	0x0d	13
166	0x65	101
167	0x2c	44
168	0xce	-50
169	0x5c	92
170	0xf7	-9
171	0x10	16
172	0xd7	-41
173	0xe7	-25
174	0xcf	-49
175	0x82	-126
176	0x4d	77
177	0x16	22
178	0x18	24
179	0x3e	62
180	0xef	-17
181	0x0e	14
182	0x21	33
183	0x6c	108
184	0x5d	93
185	0xfc	-4
186	0x7f	127
187	0xb1	-79
188	0x19	25
189	0x52	82
190	0x1c	28
191	0xd4	-44
192	0x37	55
193	0x42	66
194	0x3e	62
195	0x49	73
196	0x00	0
197	0x33	51
198	0x5b	91
199	0x3c	60
200	0xde	-34
201	0x26	38
202	0x00	0
203	0xf9	-7
204	0x8d	-115
205	0xff	-1
206	0xc9	-55
207	0x81	-127
208	0x51	81
209	0x26	38
210	0x69	105
211	0x69	105
212	0x1c	28
213	0x27	39
214	0xef	-17
215	0x38	56
216	0x5e	94
217	0x06	6
218	0x29	41
219	0x81	-127
220	0x22	34
221	0x42	66
222	0x07	7
223	0xea	-22
224	0x44	68
225	0x68	104
226	0x7f	127
227	0x10	16
228	0xb5	-75
229	0x49	73
230	0x49	73
231	0x41	65
232	0xdb	-37
233	0xfa	-6
234	0x0f	15
235	0x3c	60
236	0x92	-110
237	0x22	34
238	0xd4	-44
239	0xbd	-67
240	0x57	87
241	0xfa	-6
242	0x61	97
243	0x1a	26
244	0x38	56
245	0x0b	11
246	0xef	-17
247	0x21	33
248	0x66	102
249	0x05	5
250	0xc6	-58
251	0x93	-109
252	0x4c	76
253	0x2f	47
254	0xfd	-3
255	0x0c	12

tfl.pseudo_qconst11 i1 [1, 9, 1, 32]
0	0x99	-103
1	0xf7	-9
2	0xed	-19
3	0x7f	127
4	0x44	68
5	0x36	54
6	0xc8	-56
7	0xe8	-24
8	0x22	34
9	0x00	0
10	0xec	-20
11	0xb7	-73
12	0xb3	-77
13	0x19	25
14	0x9e	-98
15	0x7d	125
16	0x21	33
17	0xbe	-66
18	0xeb	-21
19	0x73	115
20	0x61	97
21	0x34	52
22	0x33	51
23	0xce	-50
24	0x9b	-101
25	0x15	21
26	0x81	-127
27	0x18	24
28	0x61	97
29	0xba	-70
30	0xf3	-13
31	0x41	65
32	0x92	-110
33	0x82	-126
34	0xf5	-11
35	0x26	38
36	0x1a	26
37	0x6b	107
38	0x16	22
39	0xc5	-59
40	0x19	25
41	0x16	22
42	0x02	2
43	0xf0	-16
44	0xed	-19
45	0x26	38
46	0x89	-119
47	0x71	113
48	0x20	32
49	0x43	67
50	0x1f	31
51	0x19	25
52	0x7f	127
53	0x1b	27
54	0x35	53
55	0xe8	-24
56	0xc3	-61
57	0xfd	-3
58	0xc0	-64
59	0x22	34
60	0xfb	-5
61	0xc1	-63
62	0xf3	-13
63	0x65	101
64	0xc5	-59
65	0x81	-127
66	0x0a	10
67	0xb8	-72
68	0xd3	-45
69	0x62	98
70	0x09	9
71	0xfc	-4
72	0xec	-20
73	0x01	1
74	0x05	5
75	0xe0	-32
76	0x0d	13
77	0x0a	10
78	0xbc	-68
79	0x7f	127
80	0xc7	-57
81	0xe0	-32
82	0x16	22
83	0x01	1
84	0x7d	125
85	0x0a	10
86	0x55	85
87	0xe4	-28
88	0xc9	-55
89	0xf9	-7
90	0x0c	12
91	0x55	85
92	0xc5	-59
93	0xc6	-58
94	0xeb	-21
95	0x7f	127
96	0x26	38
97	0x86	-122
98	0x0f	15
99	0xcb	-53
100	0x86	-122
101	0x0c	12
102	0x71	113
103	0xb0	-80
104	0x01	1
105	0x06	6
106	0xf1	-15
107	0xcf	-49
108	0x41	65
109	0x24	36
110	0xdf	-33
111	0x50	80
112	0xa4	-92
113	0xf8	-8
114	0x39	57
115	0x8c	-116
116	0x5a	90
117	0x81	-127
118	0x5b	91
119	0xe6	-26
120	0xbb	-69
121	0x3a	58
122	0x34	52
123	0x5d	93
124	0xd2	-46
125	0xa2	-94
126	0x03	3
127	0x72	114
128	0x7f	127
129	0xf1	-15
130	0x1a	26
131	0x9c	-100
132	0xa4	-92
133	0x96	-106
134	0x7f	127
135	0xbc	-68
136	0x61	97
137	0xed	-19
138	0x0c	12
139	0x9f	-97
140	0x6b	107
141	0x02	2
142	0xc9	-55
143	0x31	49
144	0x81	-127
145	0x36	54
146	0x27	39
147	0xd7	-41
148	0x54	84
149	0x94	-108
150	0x2c	44
151	0xe6	-26
152	0xcf	-49
153	0x29	41
154	0x6c	108
155	0x69	105
156	0xde	-34
157	0xb9	-71
158	0xff	-1
159	0x52	82
160	0x65	101
161	0x34	52
162	0x02	2
163	0xe5	-27
164	0x0f	15
165	0x81	-127
166	0x05	5
167	0x3f	63
168	0x76	118
169	0xe9	-23
170	0x0b	11
171	0x81	-127
172	0x4e	78
173	0x0d	13
174	0xc8	-56
175	0xe7	-25
176	0xd7	-41
177	0x19	25
178	0x63	99
179	0x28	40
180	0x21	33
181	0x4b	75
182	0x7f	127
183	0xf0	-16
184	0xee	-18
185	0x05	5
186	0x4f	79
187	0x39	57
188	0x0d	13
189	0xbf	-65
190	0xfc	-4
191	0x25	37
192	0x4c	76
193	0x3b	59
194	0xf1	-15
195	0x1a	26
196	0x6c	108
197	0xa4	-92
198	0x9c	-100
199	0x7f	127
200	0x7f	127
201	0xcd	-51
202	0xd6	-42
203	0x89	-119
204	0x78	120
205	0xd5	-43
206	0xb7	-73
207	0xd1	-47
208	0xed	-19
209	0xfe	-2
210	0x7f	127
211	0x20	32
212	0x38	56
213	0x7f	127
214	0x69	105
215	0x1e	30
216	0xee	-18
217	0x02	2
218	0xfa	-6
219	0xf1	-15
220	0xec	-20
221	0xcc	-52
222	0xd4	-44
223	0xf4	-12
224	0x38	56
225	0x3b	59
226	0xbe	-66
227	0x23	35
228	0x7f	127
229	0xbe	-66
230	0xde	-34
231	0x76	118
232	0x5f	95
233	0xaa	-86
234	0xb1	-79
235	0xbd	-67
236	0x68	104
237	0xbc	-68
238	0x81	-127
239	0xe5	-27
240	0xf9	-7
241	0x2a	42
242	0x1a	26
243	0x7f	127
244	0x3e	62
245	0x4e	78
246	0x66	102
247	0x43	67
248	0xbd	-67
249	0x29	41
250	0xb9	-71
251	0xc3	-61
252	0x8e	-114
253	0xc4	-60
254	0xa6	-90
255	0xdf	-33

tfl.pseudo_qconst13 i1 [64, 1, 1, 64]
0	0xf5	-11
1	0x33	51
2	0x2b	43
3	0xf5	-11
4	0xf9	-7
5	0x74	116
6	0x46	70
7	0x1b	27
8	0x1b	27
9	0x20	32
10	0xe3	-29
11	0x24	36
12	0xe7	-25
13	0xbc	-68
14	0x57	87
15	0x23	35
16	0x63	99
17	0x06	6
18	0x2e	46
19	0xbb	-69
20	0xe3	-29
21	0x90	-112
22	0x20	32
23	0x01	1
24	0x2f	47
25	0x28	40
26	0x81	-127
27	0x14	20
28	0x1a	26
29	0x6e	110
30	0xd6	-42
31	0xd9	-39
32	0xb0	-80
33	0x27	39
34	0x69	105
35	0xca	-54
36	0x05	5
37	0x50	80
38	0x0e	14
39	0x2e	46
40	0xe3	-29
41	0xd4	-44
42	0x7a	122
43	0x3b	59
44	0x64	100
45	0x09	9
46	0x38	56
47	0xda	-38
48	0x17	23
49	0xfe	-2
50	0xc2	-62
51	0x28	40
52	0xdf	-33
53	0xe3	-29
54	0xe3	-29
55	0x1e	30
56	0xe2	-30
57	0x4a	74
58	0x17	23
59	0x28	40
60	0x52	82
61	0x0e	14
62	0xd1	-47
63	0x19	25
64	0xc4	-60
65	0xf4	-12
66	0xd4	-44
67	0xe2	-30
68	0xfd	-3
69	0xfb	-5
70	0xaf	-81
71	0xe8	-24
72	0x11	17
73	0xff	-1
74	0xf0	-16
75	0xd6	-42
76	0xda	-38
77	0xa1	-95
78	0x81	-127
79	0xf6	-10
80	0x84	-124
81	0x31	49
82	0x08	8
83	0x1f	31
84	0xf3	-13
85	0x19	25
86	0xd5	-43
87	0xe4	-28
88	0xc4	-60
89	0x16	22
90	0x3f	63
91	0x0d	13
92	0x28	40
93	0xcc	-52
94	0xd9	-39
95	0x1a	26
96	0xec	-20
97	0xf8	-8
98	0x18	24
99	0xe8	-24
100	0xf4	-12
101	0x23	35
102	0xdc	-36
103	0x3e	62
104	0x11	17
105	0x14	20
106	0xcc	-52
107	0xf9	-7
108	0xd2	-46
109	0x06	6
110	0x09	9
111	0xeb	-21
112	0xdf	-33
113	0x0c	12
114	0x20	32
115	0x1e	30
116	0xec	-20
117	0x09	9
118	0x1e	30
119	0x02	2
120	0x0c	12
121	0xe9	-23
122	0x13	19
123	0x2a	42
124	0xe8	-24
125	0x31	49
126	0x18	24
127	0x42	66
128	0xb0	-80
129	0xe8	-24
130	0x18	24
131	0xa1	-95
132	0x21	33
133	0xdf	-33
134	0x23	35
135	0x49	73
136	0xca	-54
137	0xd1	-47
138	0x6b	107
139	0x8d	-115
140	0xd4	-44
141	0xf8	-8
142	0x14	20
143	0xe9	-23
144	0x07	7
145	0xf9	-7
146	0xe1	-31
147	0x21	33
148	0xd3	-45
149	0xeb	-21
150	0x18	24
151	0x86	-122
152	0xca	-54
153	0xaa	-86
154	0xe4	-28
155	0x53	83
156	0x15	21
157	0xff	-1
158	0x90	-112
159	0x05	5
160	0xfc	-4
161	0x0f	15
162	0xd4	-44
163	0x5a	90
164	0xdb	-37
165	0xd4	-44
166	0xe0	-32
167	0xfa	-6
168	0xcd	-51
169	0x0a	10
170	0x00	0
171	0xdd	-35
172	0xe9	-23
173	0x0f	15
174	0x7f	127
175	0xe7	-25
176	0x30	48
177	0x54	84
178	0x0a	10
179	0xbe	-66
180	0x03	3
181	0x35	53
182	0x09	9
183	0xd0	-48
184	0xac	-84
185	0x18	24
186	0xef	-17
187	0x10	16
188	0xf9	-7
189	0x18	24
190	0xd3	-45
191	0x0b	11
192	0xfa	-6
193	0x1e	30
194	0xc0	-64
195	0x19	25
196	0xae	-82
197	0xe7	-25
198	0xc4	-60
199	0x0b	11
200	0xf2	-14
201	0xc4	-60
202	0xcc	-52
203	0xe7	-25
204	0x8a	-118
205	0x65	101
206	0xb2	-78
207	0x15	21
208	0xbe	-66
209	0xf9	-7
210	0xcf	-49
211	0xd2	-46
212	0xfa	-6
213	0x5c	92
214	0x20	32
215	0xf3	-13
216	0x14	20
217	0x06	6
218	0x1e	30
219	0x18	24
220	0x9e	-98
221	0x81	-127
222	0x24	36
223	0x1c	28
224	0xe9	-23
225	0xe0	-32
226	0xf0	-16
227	0x2b	43
228	0x3a	58
229	0x1e	30
230	0x20	32
231	0x3a	58
232	0x0e	14
233	0xee	-18
234	0xe1	-31
235	0xf4	-12
236	0x02	2
237	0x39	57
238	0xf5	-11
239	0x1f	31
240	0xef	-17
241	0xea	-22
242	0xf9	-7
243	0xe0	-32
244	0xd9	-39
245	0x09	9
246	0xf2	-14
247	0xd3	-45
248	0xe6	-26
249	0x9c	-100
250	0xe1	-31
251	0xc7	-57
252	0xec	-20
253	0xfc	-4
254	0x5a	90
255	0x2c	44

tfl.pseudo_qconst15 i1 [1, 11, 1, 32]
0	0x37	55
1	0x24	36
2	0xfc	-4
3	0xb1	-79
4	0x81	-127
5	0x03	3
6	0xad	-83
7	0xc9	-55
8	0xd1	-47
9	0x7f	127
10	0x06	6
11	0xda	-38
12	0xd1	-47
13	0xe4	-28
14	0x1e	30
15	0x7f	127
16	0x7f	127
17	0x70	112
18	0x81	-127
19	0x00	0
20	0x9c	-100
21	0x41	65
22	0xa3	-93
23	0x1e	30
24	0xba	-70
25	0x78	120
26	0x81	-127
27	0xdf	-33
28	0x81	-127
29	0x81	-127
30	0x81	-127
31	0xfe	-2
32	0x7f	127
33	0x2e	46
34	0x93	-109
35	0xc0	-64
36	0x9c	-100
37	0xe8	-24
38	0xb0	-80
39	0xf3	-13
40	0xa1	-95
41	0x57	87
42	0xff	-1
43	0xc2	-62
44	0xcc	-52
45	0x02	2
46	0x36	54
47	0x62	98
48	0x5c	92
49	0x62	98
50	0x91	-111
51	0x4b	75
52	0x98	-104
53	0x5e	94
54	0xd5	-43
55	0xf0	-16
56	0xd2	-46
57	0x57	87
58	0xb8	-72
59	0xcc	-52
60	0x83	-125
61	0x94	-108
62	0xa6	-90
63	0x30	48
64	0x6c	108
65	0x3b	59
66	0x81	-127
67	0xfe	-2
68	0xa6	-90
69	0xa0	-96
70	0xb6	-74
71	0x04	4
72	0x9c	-100
73	0x0f	15
74	0xcf	-49
75	0x94	-108
76	0xc8	-56
77	0xbd	-67
78	0x21	33
79	0x39	57
80	0x52	82
81	0x7f	127
82	0xad	-83
83	0x65	101
84	0x81	-127
85	0x46	70
86	0x93	-109
87	0xeb	-21
88	0xf5	-11
89	0x40	64
90	0xcc	-52
91	0x03	3
92	0xa1	-95
93	0xad	-83
94	0xb3	-77
95	0x2a	42
96	0x70	112
97	0x26	38
98	0xea	-22
99	0x17	23
100	0xf3	-13
101	0xa3	-93
102	0xd5	-43
103	0x3f	63
104	0xa0	-96
105	0xe5	-27
106	0xcc	-52
107	0x81	-127
108	0xda	-38
109	0xdf	-33
110	0x07	7
111	0x49	73
112	0x3b	59
113	0x6e	110
114	0xdb	-37
115	0x50	80
116	0x97	-105
117	0x63	99
118	0xdf	-33
119	0x01	1
120	0xfa	-6
121	0x69	105
122	0xdb	-37
123	0x16	22
124	0xa8	-88
125	0xc2	-62
126	0xe2	-30
127	0x2e	46
128	0x2c	44
129	0x12	18
130	0x55	85
131	0x07	7
132	0xf1	-15
133	0x81	-127
134	0xa4	-92
135	0x7f	127
136	0xf7	-9
137	0x14	20
138	0xb1	-79
139	0x9a	-102
140	0xe0	-32
141	0xdf	-33
142	0xf3	-13
143	0x40	64
144	0x25	37
145	0x72	114
146	0xf2	-14
147	0x3f	63
148	0x9f	-97
149	0x3c	60
150	0x7f	127
151	0x07	7
152	0xba	-70
153	0x7f	127
154	0xc7	-57
155	0x46	70
156	0xd1	-47
157	0x06	6
158	0x23	35
159	0x2e	46
160	0x66	102
161	0xfe	-2
162	0x6b	107
163	0x1b	27
164	0xd2	-46
165	0x8e	-114
166	0xc2	-62
167	0x79	121
168	0xe4	-28
169	0x48	72
170	0xb7	-73
171	0xd1	-47
172	0xda	-38
173	0xb8	-72
174	0xfd	-3
175	0x47	71
176	0x11	17
177	0x43	67
178	0x12	18
179	0x0d	13
180	0xad	-83
181	0xd8	-40
182	0x6c	108
183	0xf6	-10
184	0xe9	-23
185	0x78	120
186	0xe5	-27
187	0x37	55
188	0x2d	45
189	0x27	39
190	0xec	-20
191	0x25	37
192	0x6c	108
193	0xef	-17
194	0xef	-17
195	0x3e	62
196	0xdf	-33
197	0xd6	-42
198	0xca	-54
199	0x15	21
200	0x1d	29
201	0x64	100
202	0xca	-54
203	0xe6	-26
204	0xe4	-28
205	0xe5	-27
206	0x25	37
207	0x21	33
208	0x1d	29
209	0x5e	94
210	0x1a	26
211	0x2e	46
212	0xb8	-72
213	0x8b	-117
214	0x48	72
215	0xeb	-21
216	0x93	-109
217	0x22	34
218	0x25	37
219	0xee	-18
220	0x6d	109
221	0x14	20
222	0xc8	-56
223	0x1a	26
224	0x48	72
225	0x0a	10
226	0xa6	-90
227	0x64	100
228	0xf4	-12
229	0x0b	11
230	0x0e	14
231	0xc7	-57
232	0x28	40
233	0x61	97
234	0xdc	-36
235	0xec	-20
236	0x03	3
237	0xea	-22
238	0x33	51
239	0x29	41
240	0x0a	10
241	0x35	53
242	0x0e	14
243	0x77	119
244	0xc9	-55
245	0x88	-120
246	0x08	8
247	0xb4	-76
248	0xb2	-78
249	0xf1	-15
250	0x3e	62
251	0xbd	-67
252	0x7b	123
253	0x30	48
254	0xcf	-49
255	0x70	112

tfl.pseudo_qconst17 i1 [1, 7, 1, 32]
0	0xfd	-3
1	0xe3	-29
2	0x45	69
3	0x00	0
4	0x0b	11
5	0xda	-38
6	0x3e	62
7	0x81	-127
8	0x8b	-117
9	0x39	57
10	0xc6	-58
11	0x0f	15
12	0xe1	-31
13	0x7f	127
14	0x61	97
15	0x1c	28
16	0x42	66
17	0x3a	58
18	0x48	72
19	0x0f	15
20	0xaf	-81
21	0xa4	-92
22	0xce	-50
23	0xea	-22
24	0xdd	-35
25	0xe5	-27
26	0xaf	-81
27	0xcb	-53
28	0x0a	10
29	0x0b	11
30	0x0a	10
31	0xe2	-30
32	0xe4	-28
33	0x8d	-115
34	0x2b	43
35	0xe2	-30
36	0x06	6
37	0xa5	-91
38	0x2e	46
39	0xa5	-91
40	0xdc	-36
41	0x6c	108
42	0xe1	-31
43	0xf1	-15
44	0xcb	-53
45	0x2f	47
46	0xdb	-37
47	0xf3	-13
48	0x24	36
49	0x0c	12
50	0x13	19
51	0x48	72
52	0x9d	-99
53	0x8c	-116
54	0x50	80
55	0xe9	-23
56	0xb6	-74
57	0x9b	-101
58	0xdf	-33
59	0x03	3
60	0x2f	47
61	0x4c	76
62	0x05	5
63	0xe4	-28
64	0xdd	-35
65	0xbe	-66
66	0x10	16
67	0x22	34
68	0x71	113
69	0x9f	-97
70	0x5e	94
71	0x89	-119
72	0xdf	-33
73	0x7f	127
74	0xd6	-42
75	0xe9	-23
76	0xc4	-60
77	0x29	41
78	0x9e	-98
79	0x2c	44
80	0x17	23
81	0x92	-110
82	0xbc	-68
83	0x15	21
84	0xdc	-36
85	0xb1	-79
86	0xac	-84
87	0xe1	-31
88	0x81	-127
89	0x92	-110
90	0x0a	10
91	0x49	73
92	0x2c	44
93	0x7f	127
94	0x00	0
95	0xaa	-86
96	0xe6	-26
97	0xa6	-90
98	0xe9	-23
99	0x3a	58
100	0x55	85
101	0x81	-127
102	0x53	83
103	0x9a	-102
104	0x25	37
105	0x63	99
106	0x07	7
107	0xe3	-29
108	0x1d	29
109	0xd3	-45
110	0xd1	-47
111	0x31	49
112	0xf7	-9
113	0x81	-127
114	0x81	-127
115	0xed	-19
116	0x15	21
117	0xef	-17
118	0x9d	-99
119	0xfa	-6
120	0x82	-126
121	0x81	-127
122	0x77	119
123	0x10	16
124	0x7f	127
125	0x24	36
126	0xe7	-25
127	0xaa	-86
128	0xf4	-12
129	0x81	-127
130	0xcc	-52
131	0x2e	46
132	0xdd	-35
133	0x83	-125
134	0x09	9
135	0xa5	-91
136	0x44	68
137	0x38	56
138	0x49	73
139	0x06	6
140	0x5f	95
141	0xb1	-79
142	0x7f	127
143	0x7f	127
144	0xf6	-10
145	0xfa	-6
146	0x99	-103
147	0xcb	-53
148	0x77	119
149	0x3d	61
150	0x81	-127
151	0xc9	-55
152	0x36	54
153	0xcd	-51
154	0x7f	127
155	0xee	-18
156	0x40	64
157	0xb7	-73
158	0x08	8
159	0x81	-127
160	0x46	70
161	0xf3	-13
162	0x81	-127
163	0x53	83
164	0x81	-127
165	0xc6	-58
166	0xaf	-81
167	0xb5	-75
168	0x67	103
169	0x41	65
170	0x48	72
171	0x3e	62
172	0x7f	127
173	0xc6	-58
174	0x75	117
175	0x72	114
176	0x19	25
177	0x4c	76
178	0x2f	47
179	0x81	-127
180	0x7f	127
181	0x7f	127
182	0x81	-127
183	0xce	-50
184	0x4d	77
185	0xf9	-7
186	0x2c	44
187	0xc2	-62
188	0x62	98
189	0xa9	-87
190	0x28	40
191	0x9a	-102
192	0x7f	127
193	0x23	35
194	0x10	16
195	0x7f	127
196	0x8a	-118
197	0xeb	-21
198	0x81	-127
199	0xe7	-25
200	0x7f	127
201	0x38	56
202	0x7f	127
203	0x7f	127
204	0x61	97
205	0x51	81
206	0xc4	-60
207	0x12	18
208	0x7f	127
209	0x56	86
210	0x61	97
211	0xb0	-80
212	0x3c	60
213	0xe6	-26
214	0xe6	-26
215	0x81	-127
216	0x32	50
217	0xcd	-51
218	0xa4	-92
219	0x81	-127
220	0x2a	42
221	0x3b	59
222	0x7f	127
223	0xc7	-57

tfl.pseudo_qconst19 i1 [64, 1, 1, 32]
0	0x6c	108
1	0x67	103
2	0x69	105
3	0x04	4
4	0x4a	74
5	0x20	32
6	0xc8	-56
7	0xd9	-39
8	0x81	-127
9	0xc9	-55
10	0x18	24
11	0xf9	-7
12	0x06	6
13	0x2d	45
14	0x1e	30
15	0xf8	-8
16	0x1e	30
17	0xe2	-30
18	0xc5	-59
19	0x0e	14
20	0xd6	-42
21	0x12	18
22	0x31	49
23	0x40	64
24	0x21	33
25	0xef	-17
26	0x0c	12
27	0x90	-112
28	0xae	-82
29	0x1c	28
30	0xf9	-7
31	0xee	-18
32	0xdb	-37
33	0x30	48
34	0x24	36
35	0xf8	-8
36	0xde	-34
37	0xef	-17
38	0x15	21
39	0x9b	-101
40	0xfb	-5
41	0xcd	-51
42	0x16	22
43	0xfa	-6
44	0x68	104
45	0x15	21
46	0x07	7
47	0x3a	58
48	0xec	-20
49	0x10	16
50	0xfe	-2
51	0xd6	-42
52	0x16	22
53	0xfb	-5
54	0xf8	-8
55	0x24	36
56	0xb5	-75
57	0x44	68
58	0x7f	127
59	0x14	20
60	0xcc	-52
61	0x16	22
62	0x1e	30
63	0xf4	-12
64	0x23	35
65	0x85	-123
66	0xdd	-35
67	0xaa	-86
68	0x3a	58
69	0x0b	11
70	0xf7	-9
71	0xed	-19
72	0x10	16
73	0x08	8
74	0x05	5
75	0x81	-127
76	0xf0	-16
77	0x00	0
78	0x23	35
79	0x01	1
80	0x56	86
81	0x5c	92
82	0xf7	-9
83	0xf0	-16
84	0xe8	-24
85	0xbb	-69
86	0x30	48
87	0xf6	-10
88	0xd8	-40
89	0xb6	-74
90	0x26	38
91	0xf3	-13
92	0xc5	-59
93	0xb7	-73
94	0x17	23
95	0x5b	91
96	0xf4	-12
97	0x1a	26
98	0xd9	-39
99	0xe8	-24
100	0xee	-18
101	0x23	35
102	0xee	-18
103	0xeb	-21
104	0xe5	-27
105	0xd6	-42
106	0x5f	95
107	0xc9	-55
108	0x2a	42
109	0xb5	-75
110	0x8e	-114
111	0x18	24
112	0x2f	47
113	0xe4	-28
114	0x13	19
115	0x02	2
116	0x0d	13
117	0xc6	-58
118	0x21	33
119	0xc4	-60
120	0x81	-127
121	0x04	4
122	0x65	101
123	0xfc	-4
124	0xe2	-30
125	0x02	2
126	0xe0	-32
127	0xb5	-75
128	0xd5	-43
129	0xf7	-9
130	0x46	70
131	0x62	98
132	0x42	66
133	0x39	57
134	0xfb	-5
135	0x68	104
136	0x36	54
137	0xcf	-49
138	0xe4	-28
139	0xac	-84
140	0x21	33
141	0xb1	-79
142	0xbd	-67
143	0x21	33
144	0x91	-111
145	0xac	-84
146	0x7f	127
147	0xcf	-49
148	0xe3	-29
149	0x49	73
150	0x13	19
151	0x34	52
152	0xf1	-15
153	0x05	5
154	0xcc	-52
155	0xb4	-76
156	0xf1	-15
157	0xe9	-23
158	0x44	68
159	0xf5	-11
160	0xf5	-11
161	0xba	-70
162	0xb7	-73
163	0xc9	-55
164	0xb9	-71
165	0x0e	14
166	0x1a	26
167	0xee	-18
168	0xd6	-42
169	0xff	-1
170	0x7f	127
171	0x4b	75
172	0xf7	-9
173	0xd4	-44
174	0x27	39
175	0xe2	-30
176	0xea	-22
177	0x34	52
178	0x30	48
179	0x36	54
180	0xf7	-9
181	0xd7	-41
182	0xf9	-7
183	0xe9	-23
184	0xaa	-86
185	0x8d	-115
186	0xdc	-36
187	0x3a	58
188	0x2e	46
189	0x09	9
190	0x11	17
191	0xcc	-52
192	0x71	113
193	0xb6	-74
194	0xf3	-13
195	0xc8	-56
196	0x2c	44
197	0xec	-20
198	0xd5	-43
199	0x41	65
200	0x2b	43
201	0xfd	-3
202	0x0a	10
203	0xa1	-95
204	0x27	39
205	0xaa	-86
206	0xe3	-29
207	0x17	23
208	0xed	-19
209	0xe8	-24
210	0xf5	-11
211	0xd3	-45
212	0xf4	-12
213	0x6e	110
214	0x34	52
215	0x4f	79
216	0xc4	-60
217	0xbf	-65
218	0x7f	127
219	0xf7	-9
220	0x28	40
221	0xfd	-3
222	0x44	68
223	0x47	71
224	0xbb	-69
225	0xeb	-21
226	0x4d	77
227	0x0b	11
228	0xf7	-9
229	0x75	117
230	0xe1	-31
231	0xef	-17
232	0xcf	-49
233	0x39	57
234	0xf2	-14
235	0x0d	13
236	0x75	117
237	0xc7	-57
238	0xec	-20
239	0xd8	-40
240	0xf7	-9
241	0xda	-38
242	0xef	-17
243	0x55	85
244	0x69	105
245	0xdb	-37
246	0x0f	15
247	0x28	40
248	0xea	-22
249	0x2d	45
250	0xfa	-6
251	0x03	3
252	0x33	51
253	0x1d	29
254	0xfa	-6
255	0x81	-127

tfl.pseudo_qconst21 i1 [1, 5, 1, 32]
0	0xa0	-96
1	0x5c	92
2	0x81	-127
3	0x37	55
4	0x2f	47
5	0xf2	-14
6	0x18	24
7	0x81	-127
8	0x11	17
9	0xed	-19
10	0x9f	-97
11	0xd1	-47
12	0x7e	126
13	0x09	9
14	0x81	-127
15	0x9a	-102
16	0xaa	-86
17	0x8f	-113
18	0xc0	-64
19	0x1a	26
20	0x7f	127
21	0x7f	127
22	0x7f	127
23	0x7f	127
24	0x8b	-117
25	0x70	112
26	0x7f	127
27	0xb8	-72
28	0x68	104
29	0x26	38
30	0xc0	-64
31	0x2f	47
32	0x81	-127
33	0x66	102
34	0xc4	-60
35	0x7e	126
36	0xfe	-2
37	0xf6	-10
38	0x31	49
39	0x13	19
40	0x20	32
41	0xf6	-10
42	0x8e	-114
43	0xc4	-60
44	0x6c	108
45	0x32	50
46	0x8a	-118
47	0x85	-123
48	0x10	16
49	0x11	17
50	0xdc	-36
51	0x38	56
52	0x31	49
53	0xfe	-2
54	0x50	80
55	0x14	20
56	0x95	-107
57	0x1c	28
58	0x3b	59
59	0xe1	-31
60	0x77	119
61	0x58	88
62	0x0c	12
63	0x4a	74
64	0x26	38
65	0x43	67
66	0x38	56
67	0x27	39
68	0xc0	-64
69	0x16	22
70	0xca	-54
71	0x64	100
72	0x3a	58
73	0xce	-50
74	0xf1	-15
75	0xf0	-16
76	0x7f	127
77	0x79	121
78	0xa3	-93
79	0xd5	-43
80	0x14	20
81	0x7f	127
82	0xf0	-16
83	0x0f	15
84	0x63	99
85	0xb4	-76
86	0x53	83
87	0xdc	-36
88	0xcf	-49
89	0x25	37
90	0x82	-126
91	0xd9	-39
92	0x7f	127
93	0x7f	127
94	0x5f	95
95	0x37	55
96	0x3f	63
97	0xd2	-46
98	0x49	73
99	0xec	-20
100	0x8a	-118
101	0x63	99
102	0xb2	-78
103	0x5d	93
104	0xc8	-56
105	0x93	-109
106	0x3d	61
107	0x3e	62
108	0x35	53
109	0x51	81
110	0xf4	-12
111	0xaf	-81
112	0x79	121
113	0x40	64
114	0xa1	-95
115	0x64	100
116	0x31	49
117	0xbc	-68
118	0x2f	47
119	0x9b	-101
120	0x0c	12
121	0xcb	-53
122	0x96	-106
123	0x4c	76
124	0x51	81
125	0x53	83
126	0x52	82
127	0xd8	-40
128	0x78	120
129	0x81	-127
130	0x79	121
131	0x81	-127
132	0x81	-127
133	0x7f	127
134	0x81	-127
135	0x5a	90
136	0x81	-127
137	0x81	-127
138	0x7f	127
139	0x7f	127
140	0x3f	63
141	0x7f	127
142	0x89	-119
143	0x81	-127
144	0x7f	127
145	0x07	7
146	0x81	-127
147	0x7f	127
148	0xc4	-60
149	0xdc	-36
150	0x04	4
151	0xa5	-91
152	0x81	-127
153	0x81	-127
154	0x30	48
155	0x7f	127
156	0x50	80
157	0x22	34
158	0x7f	127
159	0x81	-127

tfl.pseudo_qconst23 i1 [32, 5, 1, 40]
0	0xfd	-3
1	0xec	-20
2	0xfb	-5
3	0xdd	-35
4	0xdd	-35
5	0xc5	-59
6	0xcd	-51
7	0xeb	-21
8	0x03	3
9	0xf3	-13
10	0x0e	14
11	0x08	8
12	0xf4	-12
13	0x36	54
14	0x12	18
15	0x04	4
16	0x02	2
17	0xf9	-7
18	0xde	-34
19	0x08	8
20	0xf6	-10
21	0x05	5
22	0x12	18
23	0x00	0
24	0xf1	-15
25	0xd8	-40
26	0x9b	-101
27	0xbe	-66
28	0xe7	-25
29	0xde	-34
30	0xed	-19
31	0x22	34
32	0x29	41
33	0x16	22
34	0x1d	29
35	0x0d	13
36	0x44	68
37	0x1f	31
38	0x2c	44
39	0x12	18
40	0x2d	45
41	0x0f	15
42	0x2b	43
43	0x09	9
44	0x01	1
45	0xc2	-62
46	0xbe	-66
47	0xdc	-36
48	0x1e	30
49	0xff	-1
50	0x0c	12
51	0x0a	10
52	0xf5	-11
53	0x25	37
54	0xfd	-3
55	0x24	36
56	0x16	22
57	0x07	7
58	0xfd	-3
59	0x0e	14
60	0xf2	-14
61	0x09	9
62	0xff	-1
63	0xe8	-24
64	0xc7	-57
65	0xc0	-64
66	0xa7	-89
67	0xc1	-63
68	0xe2	-30
69	0xf4	-12
70	0xec	-20
71	0x19	25
72	0x27	39
73	0xff	-1
74	0x26	38
75	0xf1	-15
76	0x3e	62
77	0x2c	44
78	0x31	49
79	0x1f	31
80	0x5e	94
81	0x54	84
82	0x51	81
83	0x38	56
84	0xf7	-9
85	0xf1	-15
86	0xe1	-31
87	0xf2	-14
88	0x01	1
89	0xfb	-5
90	0x17	23
91	0x00	0
92	0x06	6
93	0x2a	42
94	0x1d	29
95	0x1f	31
96	0x2d	45
97	0x13	19
98	0x04	4
99	0x1c	28
100	0xfd	-3
101	0x09	9
102	0xf2	-14
103	0xdb	-37
104	0xc4	-60
105	0xb8	-72
106	0x9c	-100
107	0xc8	-56
108	0xe9	-23
109	0xdd	-35
110	0x04	4
111	0x23	35
112	0x24	36
113	0x22	34
114	0x20	32
115	0x08	8
116	0x23	35
117	0x16	22
118	0x1c	28
119	0x27	39
120	0x7f	127
121	0x56	86
122	0x4c	76
123	0x3f	63
124	0x21	33
125	0xdb	-37
126	0xe5	-27
127	0xf7	-9
128	0x04	4
129	0xf7	-9
130	0xfa	-6
131	0x2e	46
132	0xed	-19
133	0x21	33
134	0x36	54
135	0x2d	45
136	0x28	40
137	0x28	40
138	0x33	51
139	0x13	19
140	0xd6	-42
141	0x1c	28
142	0xe4	-28
143	0xe4	-28
144	0xd1	-47
145	0xaf	-81
146	0xb6	-74
147	0xc0	-64
148	0xe1	-31
149	0xd1	-47
150	0x05	5
151	0x28	40
152	0x28	40
153	0x21	33
154	0x1a	26
155	0xfa	-6
156	0x26	38
157	0x14	20
158	0x29	41
159	0x30	48
160	0x7b	123
161	0x52	82
162	0x2b	43
163	0x64	100
164	0x14	20
165	0xf3	-13
166	0xf4	-12
167	0x0f	15
168	0xf6	-10
169	0xe7	-25
170	0x0b	11
171	0x25	37
172	0x0c	12
173	0x2c	44
174	0x2b	43
175	0x23	35
176	0x27	39
177	0x0d	13
178	0x17	23
179	0x26	38
180	0x03	3
181	0x19	25
182	0xf2	-14
183	0xd8	-40
184	0xe0	-32
185	0xda	-38
186	0xba	-70
187	0xc8	-56
188	0xe3	-29
189	0xd3	-45
190	0x14	20
191	0x11	17
192	0x2c	44
193	0x11	17
194	0x27	39
195	0x02	2
196	0x3b	59
197	0x3c	60
198	0x2e	46
199	0x29	41
200	0x1b	27
201	0xbd	-67
202	0xdb	-37
203	0xdb	-37
204	0x04	4
205	0x0c	12
206	0x5e	94
207	0x35	53
208	0x46	70
209	0x23	35
210	0xdb	-37
211	0xe4	-28
212	0xe2	-30
213	0x0b	11
214	0x1d	29
215	0x07	7
216	0x2e	46
217	0x46	70
218	0x03	3
219	0x13	19
220	0x00	0
221	0xd2	-46
222	0xeb	-21
223	0xf7	-9
224	0x05	5
225	0xd3	-45
226	0xa2	-94
227	0x98	-104
228	0xdd	-35
229	0xeb	-21
230	0x18	24
231	0xf2	-14
232	0x08	8
233	0xea	-22
234	0x23	35
235	0x00	0
236	0x2b	43
237	0xec	-20
238	0x0a	10
239	0xdc	-36
240	0x14	20
241	0xaa	-86
242	0xce	-50
243	0xc1	-63
244	0xf0	-16
245	0xed	-19
246	0x3d	61
247	0x5c	92
248	0x51	81
249	0x34	52
250	0xe5	-27
251	0xfc	-4
252	0xfd	-3
253	0x2d	45
254	0x25	37
255	0x30	48

tfl.pseudo_qconst24 i1 [1, 22, 1, 64] scale=0.059012245 zero_point=-128
0	0x80	0.0
1	0x80	0.0
2	0x80	0.0
3	0x80	0.0
4	0x80	0.0
5	0x80	0.0
6	0x80	0.0
7	0x80	0.0
8	0x80	0.0
9	0x80	0.0
10	0x80	0.0
11	0x80	0.0
12	0x80	0.0
13	0x80	0.0
14	0x80	0.0
15	0x80	0.0
16	0x80	0.0
17	0x80	0.0
18	0x80	0.0
19	0x80	0.0
20	0x80	0.0
21	0x80	0.0
22	0x80	0.0
23	0x80	0.0
24	0x80	0.0
25	0x80	0.0
26	0x80	0.0
27	0x80	0.0
28	0x80	0.0
29	0x80	0.0
30	0x80	0.0
31	0x80	0.0
32	0x80	0.0
33	0x80	0.0
34	0x80	0.0
35	0x80	0.0
36	0x80	0.0
37	0x80	0.0
38	0x80	0.0
39	0x80	0.0
40	0x80	0.0
41	0x80	0.0
42	0x80	0.0
43	0x80	0.0
44	0x80	0.0
45	0x80	0.0
46	0x80	0.0
47	0x80	0.0
48	0x80	0.0
49	0x80	0.0
50	0x80	0.0
51	0x80	0.0
52	0x80	0.0
53	0x80	0.0
54	0x80	0.0
55	0x80	0.0
56	0x80	0.0
57	0x80	0.0
58	0x80	0.0
59	0x80	0.0
60	0x80	0.0
61	0x80	0.0
62	0x80	0.0
63	0x80	0.0
64	0x80	0.0
65	0x80	0.0
66	0x80	0.0
67	0x80	0.0
68	0x80	0.0
69	0x80	0.0
70	0x80	0.0
71	0x80	0.0
72	0x80	0.0
73	0x80	0.0
74	0x80	0.0
75	0x80	0.0
76	0x80	0.0
77	0x80	0.0
78	0x80	0.0
79	0x80	0.0
80	0x80	0.0
81	0x80	0.0
82	0x80	0.0
83	0x80	0.0
84	0x80	0.0
85	0x80	0.0
86	0x80	0.0
87	0x80	0.0
88	0x80	0.0
89	0x80	0.0
90	0x80	0.0
91	0x80	0.0
92	0x80	0.0
93	0x80	0.0
94	0x80	0.0
95	0x80	0.0
96	0x80	0.0
97	0x80	0.0
98	0x80	0.0
99	0x80	0.0
100	0x80	0.0
101	0x80	0.0
102	0x80	0.0
103	0x80	0.0
104	0x80	0.0
105	0x80	0.0
106	0x80	0.0
107	0x80	0.0
108	0x80	0.0
109	0x80	0.0
110	0x80	0.0
111	0x80	0.0
112	0x80	0.0
113	0x80	0.0
114	0x80	0.0
115	0x80	0.0
116	0x80	0.0
117	0x80	0.0
118	0x80	0.0
119	0x80	0.0
120	0x80	0.0
121	0x80	0.0
122	0x80	0.0
123	0x80	0.0
124	0x80	0.0
125	0x80	0.0
126	0x80	0.0
127	0x80	0.0
128	0x80	0.0
129	0x80	0.0
130	0x80	0.0
131	0x80	0.0
132	0x80	0.0
133	0x80	0.0
134	0x80	0.0
135	0x80	0.0
136	0x80	0.0
137	0x80	0.0
138	0x80	0.0
139	0x80	0.0
140	0x80	0.0
141	0x80	0.0
142	0x80	0.0
143	0x80	0.0
144	0x80	0.0
145	0x80	0.0
146	0x80	0.0
147	0x80	0.0
148	0x80	0.0
149	0x80	0.0
150	0x80	0.0
151	0x80	0.0
152	0x80	0.0
153	0x80	0.0
154	0x80	0.0
155	0x80	0.0
156	0x80	0.0
157	0x80	0.0
158	0x80	0.0
159	0x80	0.0
160	0x80	0.0
161	0x80	0.0
162	0x80	0.0
163	0x80	0.0
164	0x80	0.0
165	0x80	0.0
166	0x80	0.0
167	0x80	0.0
168	0x80	0.0
169	0x80	0.0
170	0x80	0.0
171	0x80	0.0
172	0x80	0.0
173	0x80	0.0
174	0x80	0.0
175	0x80	0.0
176	0x80	0.0
177	0x80	0.0
178	0x80	0.0
179	0x80	0.0
180	0x80	0.0
181	0x80	0.0
182	0x80	0.0
183	0x80	0.0
184	0x80	0.0
185	0x80	0.0
186	0x80	0.0
187	0x80	0.0
188	0x80	0.0
189	0x80	0.0
190	0x80	0.0
191	0x80	0.0
192	0x80	0.0
193	0x80	0.0
194	0x80	0.0
195	0x80	0.0
196	0x80	0.0
197	0x80	0.0
198	0x80	0.0
199	0x80	0.0
200	0x80	0.0
201	0x80	0.0
202	0x80	0.0
203	0x80	0.0
204	0x80	0.0
205	0x80	0.0
206	0x80	0.0
207	0x80	0.0
208	0x80	0.0
209	0x80	0.0
210	0x80	0.0
211	0x80	0.0
212	0x80	0.0
213	0x80	0.0
214	0x80	0.0
215	0x80	0.0
216	0x80	0.0
217	0x80	0.0
218	0x80	0.0
219	0x80	0.0
220	0x80	0.0
221	0x80	0.0
222	0x80	0.0
223	0x80	0.0
224	0x80	0.0
225	0x80	0.0
226	0x80	0.0
227	0x80	0.0
228	0x80	0.0
229	0x80	0.0
230	0x80	0.0
231	0x80	0.0
232	0x80	0.0
233	0x80	0.0
234	0x80	0.0
235	0x80	0.0
236	0x80	0.0
237	0x80	0.0
238	0x80	0.0
239	0x80	0.0
240	0x80	0.0
241	0x80	0.0
242	0x80	0.0
243	0x80	0.0
244	0x80	0.0
245	0x80	0.0
246	0x80	0.0
247	0x80	0.0
248	0x80	0.0
249	0x80	0.0
250	0x80	0.0
251	0x80	0.0
252	0x80	0.0
253	0x80	0.0
254	0x80	0.0
255	0x80	0.0

tfl.pseudo_qconst25 i1 [1, 36, 1, 64] scale=0.02205572 zero_point=-128
0	0x80	0.0
1	0x80	0.0
2	0x80	0.0
3	0x80	0.0
4	0x80	0.0
5	0x80	0.0
6	0x80	0.0
7	0x80	0.0
8	0x80	0.0
9	0x80	0.0
10	0x80	0.0
11	0x80	0.0
12	0x80	0.0
13	0x80	0.0
14	0x80	0.0
15	0x80	0.0
16	0x80	0.0
17	0x80	0.0
18	0x80	0.0
19	0x80	0.0
20	0x80	0.0
21	0x80	0.0
22	0x80	0.0
23	0x80	0.0
24	0x80	0.0
25	0x80	0.0
26	0x80	0.0
27	0x80	0.0
28	0x80	0.0
29	0x80	0.0
30	0x80	0.0
31	0x80	0.0
32	0x80	0.0
33	0x80	0.0
34	0x80	0.0
35	0x80	0.0
36	0x80	0.0
37	0x80	0.0
38	0x80	0.0
39	0x80	0.0
40	0x80	0.0
41	0x80	0.0
42	0x80	0.0
43	0x80	0.0
44	0x80	0.0
45	0x80	0.0
46	0x80	0.0
47	0x80	0.0
48	0x80	0.0
49	0x80	0.0
50	0x80	0.0
51	0x80	0.0
52	0x80	0.0
53	0x80	0.0
54	0x80	0.0
55	0x80	0.0
56	0x80	0.0
57	0x80	0.0
58	0x80	0.0
59	0x80	0.0
60	0x80	0.0
61	0x80	0.0
62	0x80	0.0
63	0x80	0.0
64	0x80	0.0
65	0x80	0.0
66	0x80	0.0
67	0x80	0.0
68	0x80	0.0
69	0x80	0.0
70	0x80	0.0
71	0x80	0.0
72	0x80	0.0
73	0x80	0.0
74	0x80	0.0
75	0x80	0.0
76	0x80	0.0
77	0x80	0.0
78	0x80	0.0
79	0x80	0.0
80	0x80	0.0
81	0x80	0.0
82	0x80	0.0
83	0x80	0.0
84	0x80	0.0
85	0x80	0.0
86	0x80	0.0
87	0x80	0.0
88	0x80	0.0
89	0x80	0.0
90	0x80	0.0
91	0x80	0.0
92	0x80	0.0
93	0x80	0.0
94	0x80	0.0
95	0x80	0.0
96	0x80	0.0
97	0x80	0.0
98	0x80	0.0
99	0x80	0.0
100	0x80	0.0
101	0x80	0.0
102	0x80	0.0
103	0x80	0.0
104	0x80	0.0
105	0x80	0.0
106	0x80	0.0
107	0x80	0.0
108	0x80	0.0
109	0x80	0.0
110	0x80	0.0
111	0x80	0.0
112	0x80	0.0
113	0x80	0.0
114	0x80	0.0
115	0x80	0.0
116	0x80	0.0
117	0x80	0.0
118	0x80	0.0
119	0x80	0.0
120	0x80	0.0
121	0x80	0.0
122	0x80	0.0
123	0x80	0.0
124	0x80	0.0
125	0x80	0.0
126	0x80	0.0
127	0x80	0.0
128	0x80	0.0
129	0x80	0.0
130	0x80	0.0
131	0x80	0.0
132	0x80	0.0
133	0x80	0.0
134	0x80	0.0
135	0x80	0.0
136	0x80	0.0
137	0x80	0.0
138	0x80	0.0
139	0x80	0.0
140	0x80	0.0
141	0x80	0.0
142	0x80	0.0
143	0x80	0.0
144	0x80	0.0
145	0x80	0.0
146	0x80	0.0
147	0x80	0.0
148	0x80	0.0
149	0x80	0.0
150	0x80	0.0
151	0x80	0.0
152	0x80	0.0
153	0x80	0.0
154	0x80	0.0
155	0x80	0.0
156	0x80	0.0
157	0x80	0.0
158	0x80	0.0
159	0x80	0.0
160	0x80	0.0
161	0x80	0.0
162	0x80	0.0
163	0x80	0.0
164	0x80	0.0
165	0x80	0.0
166	0x80	0.0
167	0x80	0.0
168	0x80	0.0
169	0x80	0.0
170	0x80	0.0
171	0x80	0.0
172	0x80	0.0
173	0x80	0.0
174	0x80	0.0
175	0x80	0.0
176	0x80	0.0
177	0x80	0.0
178	0x80	0.0
179	0x80	0.0
180	0x80	0.0
181	0x80	0.0
182	0x80	0.0
183	0x80	0.0
184	0x80	0.0
185	0x80	0.0
186	0x80	0.0
187	0x80	0.0
188	0x80	0.0
189	0x80	0.0
190	0x80	0.0
191	0x80	0.0
192	0x80	0.0
193	0x80	0.0
194	0x80	0.0
195	0x80	0.0
196	0x80	0.0
197	0x80	0.0
198	0x80	0.0
199	0x80	0.0
200	0x80	0.0
201	0x80	0.0
202	0x80	0.0
203	0x80	0.0
204	0x80	0.0
205	0x80	0.0
206	0x80	0.0
207	0x80	0.0
208	0x80	0.0
209	0x80	0.0
210	0x80	0.0
211	0x80	0.0
212	0x80	0.0
213	0x80	0.0
214	0x80	0.0
215	0x80	0.0
216	0x80	0.0
217	0x80	0.0
218	0x80	0.0
219	0x80	0.0
220	0x80	0.0
221	0x80	0.0
222	0x80	0.0
223	0x80	0.0
224	0x80	0.0
225	0x80	0.0
226	0x80	0.0
227	0x80	0.0
228	0x80	0.0
229	0x80	0.0
230	0x80	0.0
231	0x80	0.0
232	0x80	0.0
233	0x80	0.0
234	0x80	0.0
235	0x80	0.0
236	0x80	0.0
237	0x80	0.0
238	0x80	0.0
239	0x80	0.0
240	0x80	0.0
241	0x80	0.0
242	0x80	0.0
243	0x80	0.0
244	0x80	0.0
245	0x80	0.0
246	0x80	0.0
247	0x80	0.0
248	0x80	0.0
249	0x80	0.0
250	0x80	0.0
251	0x80	0.0
252	0x80	0.0
253	0x80	0.0
254	0x80	0.0
255	0x80	0.0

tfl.pseudo_qconst26 i1 [1, 3, 1, 40] scale=0.101960786 zero_point=-128
0	0x80	0.0
1	0x80	0.0
2	0x80	0.0
3	0x80	0.0
4	0x80	0.0
5	0x80	0.0
6	0x80	0.0
7	0x80	0.0
8	0x80	0.0
9	0x80	0.0
10	0x80	0.0
11	0x80	0.0
12	0x80	0.0
13	0x80	0.0
14	0x80	0.0
15	0x80	0.0
16	0x80	0.0
17	0x80	0.0
18	0x80	0.0
19	0x80	0.0
20	0x80	0.0
21	0x80	0.0
22	0x80	0.0
23	0x80	0.0
24	0x80	0.0
25	0x80	0.0
26	0x80	0.0
27	0x80	0.0
28	0x80	0.0
29	0x80	0.0
30	0x80	0.0
31	0x80	0.0
32	0x80	0.0
33	0x80	0.0
34	0x80	0.0
35	0x80	0.0
36	0x80	0.0
37	0x80	0.0
38	0x80	0.0
39	0x80	0.0
40	0x80	0.0
41	0x80	0.0
42	0x80	0.0
43	0x80	0.0
44	0x80	0.0
45	0x80	0.0
46	0x80	0.0
47	0x80	0.0
48	0x80	0.0
49	0x80	0.0
50	0x80	0.0
51	0x80	0.0
52	0x80	0.0
53	0x80	0.0
54	0x80	0.0
55	0x80	0.0
56	0x80	0.0
57	0x80	0.0
58	0x80	0.0
59	0x80	0.0
60	0x80	0.0
61	0x80	0.0
62	0x80	0.0
63	0x80	0.0
64	0x80	0.0
65	0x80	0.0
66	0x80	0.0
67	0x80	0.0
68	0x80	0.0
69	0x80	0.0
70	0x80	0.0
71	0x80	0.0
72	0x80	0.0
73	0x80	0.0
74	0x80	0.0
75	0x80	0.0
76	0x80	0.0
77	0x80	0.0
78	0x80	0.0
79	0x80	0.0
80	0x80	0.0
81	0x80	0.0
82	0x80	0.0
83	0x80	0.0
84	0x80	0.0
85	0x80	0.0
86	0x80	0.0
87	0x80	0.0
88	0x80	0.0
89	0x80	0.0
90	0x80	0.0
91	0x80	0.0
92	0x80	0.0
93	0x80	0.0
94	0x80	0.0
95	0x80	0.0
96	0x80	0.0
97	0x80	0.0
98	0x80	0.0
99	0x80	0.0
100	0x80	0.0
101	0x80	0.0
102	0x80	0.0
103	0x80	0.0
104	0x80	0.0
105	0x80	0.0
106	0x80	0.0
107	0x80	0.0
108	0x80	0.0
109	0x80	0.0
110	0x80	0.0
111	0x80	0.0
112	0x80	0.0
113	0x80	0.0
114	0x80	0.0
115	0x80	0.0
116	0x80	0.0
117	0x80	0.0
118	0x80	0.0
119	0x80	0.0

tfl.pseudo_qconst27 i1 [1, 4, 1, 32] scale=2.5453656 zero_point=-128
0	0x80	0.0
1	0x80	0.0
2	0x80	0.0
3	0x80	0.0
4	0x80	0.0
5	0x80	0.0
6	0x80	0.0
7	0x80	0.0
8	0x80	0.0
9	0x80	0.0
10	0x80	0.0
11	0x80	0.0
12	0x80	0.0
13	0x80	0.0
14	0x80	0.0
15	0x80	0.0
16	0x80	0.0
17	0x80	0.0
18	0x80	0.0
19	0x80	0.0
20	0x80	0.0
21	0x80	0.0
22	0x80	0.0
23	0x80	0.0
24	0x80	0.0
25	0x80	0.0
26	0x80	0.0
27	0x80	0.0
28	0x80	0.0
29	0x80	0.0
30	0x80	0.0
31	0x80	0.0
32	0x80	0.0
33	0x80	0.0
34	0x80	0.0
35	0x80	0.0
36	0x80	0.0
37	0x80	0.0
38	0x80	0.0
39	0x80	0.0
40	0x80	0.0
41	0x80	0.0
42	0x80	0.0
43	0x80	0.0
44	0x80	0.0
45	0x80	0.0
46	0x80	0.0
47	0x80	0.0
48	0x80	0.0
49	0x80	0.0
50	0x80	0.0
51	0x80	0.0
52	0x80	0.0
53	0x80	0.0
54	0x80	0.0
55	0x80	0.0
56	0x80	0.0
57	0x80	0.0
58	0x80	0.0
59	0x80	0.0
60	0x80	0.0
61	0x80	0.0
62	0x80	0.0
63	0x80	0.0
64	0x80	0.0
65	0x80	0.0
66	0x80	0.0
67	0x80	0.0
68	0x80	0.0
69	0x80	0.0
70	0x80	0.0
71	0x80	0.0
72	0x80	0.0
73	0x80	0.0
74	0x80	0.0
75	0x80	0.0
76	0x80	0.0
77	0x80	0.0
78	0x80	0.0
79	0x80	0.0
80	0x80	0.0
81	0x80	0.0
82	0x80	0.0
83	0x80	0.0
84	0x80	0.0
85	0x80	0.0
86	0x80	0.0
87	0x80	0.0
88	0x80	0.0
89	0x80	0.0
90	0x80	0.0
91	0x80	0.0
92	0x80	0.0
93	0x80	0.0
94	0x80	0.0
95	0x80	0.0
96	0x80	0.0
97	0x80	0.0
98	0x80	0.0
99	0x80	0.0
100	0x80	0.0
101	0x80	0.0
102	0x80	0.0
103	0x80	0.0
104	0x80	0.0
105	0x80	0.0
106	0x80	0.0
107	0x80	0.0
108	0x80	0.0
109	0x80	0.0
110	0x80	0.0
111	0x80	0.0
112	0x80	0.0
113	0x80	0.0
114	0x80	0.0
115	0x80	0.0
116	0x80	0.0
117	0x80	0.0
118	0x80	0.0
119	0x80	0.0
120	0x80	0.0
121	0x80	0.0
122	0x80	0.0
123	0x80	0.0
124	0x80	0.0
125	0x80	0.0
126	0x80	0.0
127	0x80	0.0
